mlp_ode_split_linear.pt (torch, 51127 bytes, 8 tensors)

net.odeblock.net.odefunc.net.0.weight f4 [100, 9]
0	0x3e38e7ef	0.18057226
1	0xbe16053c	-0.14650434
2	0xbe71ec48	-0.2362529
3	0x3c81b193	0.015831744
4	0xbd09056b	-0.033452433
5	0xbe87586f	-0.26434657
6	0xbe3810f3	-0.17975216
7	0xbe49736f	-0.1967294
8	0xbe57e00a	-0.21081558
9	0x3e3db92b	0.18527667
10	0xbe22dffa	-0.15905753
11	0xbdd993c4	-0.10623887
12	0x3e719283	0.23591046
13	0x3d949c19	0.07256336
14	0x3e9a0b65	0.30086818
15	0xbeab6cf6	-0.33481568
16	0xbcd906bd	-0.02649247
17	0xbe4eb55f	-0.20186375
18	0xbe9cfae4	-0.30660164
19	0xbea15a58	-0.3151424
20	0x3e0d0c4d	0.13774224
21	0xbde9d7a2	-0.11418082
22	0xbe15dfc1	-0.14636137
23	0x3e014e5d	0.1262755
24	0xbd0d7185	-0.03453209
25	0x3cc5080f	0.024051694
26	0xbe168635	-0.14699633
27	0xbd8de90d	-0.069292165
28	0xbe29f192	-0.16596058
29	0xbe24db45	-0.1609927
30	0xbe85ff4d	-0.26171342
31	0x3e661513	0.22468977
32	0x3e8fe3f3	0.281036
33	0xbe9270c4	-0.28601658
34	0x3e8b917f	0.27259442
35	0xbe82f005	-0.25573745
36	0x3de5427f	0.11194324
37	0x3db7ba22	0.08971049
38	0x3e5c21e6	0.21497306
39	0xbddc93ef	-0.107704036
40	0xbe6075dd	-0.21919961
41	0x3c10644d	0.008812976
42	0x3e22cd8f	0.15898727
43	0x3d833415	0.06406418
44	0xbdc4432b	-0.09583124
45	0x3a1e6a8a	0.0006043097
46	0xbe8a32b6	-0.26991814
47	0x3e9b7bd0	0.303679
48	0xbe2c5974	-0.16830999
49	0xbd838dd9	-0.0642354
50	0x3e9eb000	0.30993652
51	0xbe8df5f2	-0.27726704
52	0x3e5bc826	0.2146307
53	0x3ce9f4ec	0.02855917
54	0xbdb9c622	-0.09070994
55	0xbd20bc61	-0.039242152
56	0xbdfe9b25	-0.12431935
57	0xb98bbb54	-0.00026651716
58	0xbe5fff6c	-0.2187478
59	0xbe257b57	-0.16160332
60	0x3eab8361	0.33498672
61	0xbea7dd88	-0.32786202
62	0x3e1299ca	0.14316478
63	0xbe9e4836	-0.30914468
64	0x3e60b053	0.21942262
65	0x3e399cbd	0.18126197
66	0xbe80e15f	-0.25171944
67	0xbeac27b7	-0.3362405
68	0x3e565143	0.20929436
69	0x3e276592	0.1634734
70	0x3e300035	0.17187579
71	0xbdbf8462	-0.09351422
72	0xbea52677	-0.3225591
73	0xbd065b5d	-0.032801975
74	0x3e199fa5	0.15002306
75	0xbe18a3da	-0.14906254
76	0x3ec2c843	0.38043413
77	0x3d5ed7bf	0.05440497
78	0xbd28dbca	-0.041225232
79	0xbe85c8bd	-0.26129714
80	0x3e03b65f	0.12862538
81	0x3dbfdb97	0.09368055
82	0xbe3e66b3	-0.18593864
83	0xbc88ffc6	-0.016723525
84	0xbe6dede8	-0.23235285
85	0x3c86478f	0.016391544
86	0xbe110b3f	-0.14164446
87	0x3e85a3fe	0.2610168
88	0x3e7353f8	0.237625
89	0x3e889ff0	0.26684523
90	0xbe25aef8	-0.16180027
91	0xbea53774	-0.3226887
92	0xbea9e875	-0.33185163
93	0xbe3b2c04	-0.1827851
94	0x3deb12da	0.11478205
95	0xbd774d9a	-0.06037674
96	0xbe868cf3	-0.2627941
97	0x3e3a504b	0.18194692
98	0x3e982219	0.29713514
99	0x3cddfcd8	0.027098104
100	0xbe52d29c	-0.20588154
101	0x3d2b8351	0.04187328
102	0x3e722a87	0.23649035
103	0xbe77e970	-0.24210143
104	0x3d93763d	0.072002865
105	0x3e6ca234	0.2310875
106	0xbeaa3847	-0.3324606
107	0x3d8a69bf	0.06758451
108	0x3e87de3c	0.2653674
109	0xbe9d7f17	-0.30761024
110	0x3d0efb36	0.034907542
111	0xbe19dfd6	-0.15026793
112	0x3d108f1a	0.035292722
113	0x3e9d633c	0.30739772
114	0x3e43f82b	0.19137637
115	0xbe35a22a	-0.17737642
116	0xbdf8c962	-0.12147786
117	0x3e632682	0.22182658
118	0xbdd66fac	-0.104705185
119	0xbcbc037a	-0.022950877
120	0xbdda7373	-0.106665514
121	0xbebb2841	-0.3655415
122	0xbe485a18	-0.19565618
123	0x3e5a53d8	0.21321046
124	0xbe552727	-0.20815717
125	0x3e4784f9	0.19484319
126	0xbeaf79d8	-0.34272647
127	0x3d92accc	0.07161865
128	0xbded08f2	-0.11573972
129	0xbe39b708	-0.18136227
130	0x3e3b3af6	0.1828421
131	0x3ea77b19	0.32711104
132	0xbe656845	-0.22403057
133	0x3e831a4b	0.25605997
134	0xbe67c75f	-0.22634648
135	0x3e865f0d	0.26244393
136	0xbe90a279	-0.28248957
137	0xbea98342	-0.33107954
138	0x3e388de7	0.18022881
139	0xbe2fa698	-0.17153394
140	0x3e684f2c	0.22686452
141	0xbe133d51	-0.14378859
142	0xbea0390e	-0.3129353
143	0xbe6aedd4	-0.22942287
144	0xbd90340e	-0.07041179
145	0x3d0808de	0.03321158
146	0x3e10f22f	0.14154886
147	0x3ea5feaa	0.32420856
148	0x3ea5ce83	0.32384118
149	0xbdfc6e6b	-0.12325748
150	0x3e919a4d	0.28438035
151	0xbd37429a	-0.04474125
152	0xbe767068	-0.24066317
153	0xbe333e49	-0.17504229
154	0xbea1a604	-0.31571972
155	0xbdf9b0fb	-0.121919595
156	0x3e65e9ac	0.2245242
157	0xbdcf9e74	-0.101376444
158	0xbea40dbb	-0.32041726
159	0x3e3030e7	0.17206155
160	0x3d9a0322	0.07520129
161	0x3ea71dbb	0.3263987
162	0xbe8a0177	-0.26954243
163	0xbe420d29	-0.18950333
164	0xbe93d510	-0.2887349
165	0x3e8a4549	0.27005985
166	0x3e83859f	0.25687882
167	0x3e10cf0a	0.14141479
168	0xbe91959b	-0.28434452
169	0xbe8772f5	-0.26454893
170	0xbe5ab6ba	-0.21358767
171	0x3e03e79a	0.12881318
172	0x3e094993	0.13406973
173	0x3e4fef06	0.20306024
174	0xbdccbe78	-0.099972665
175	0x3e72e689	0.23720755
176	0x3e34b9e7	0.17649041
177	0xbe95086c	-0.29107988
178	0xbcba52b4	-0.022744514
179	0xbdb41cbc	-0.08794543
180	0xbe7644f8	-0.24049747
181	0x3dbb93e8	0.0915907
182	0xbe1b3b30	-0.15159297
183	0x3beb7e07	0.0071866545
184	0xbcf1cf48	-0.029517785
185	0x3e07db2c	0.13267201
186	0xbde75812	-0.11296095
187	0xbc8a5512	-0.016886268
188	0x3e8ae722	0.27129465
189	0xbe1a6351	-0.15076949
190	0xbe823c43	-0.254366
191	0x3e56f23c	0.20990843
192	0x3e4aede3	0.19817309
193	0x3db94896	0.09047048
194	0xbe7498d7	-0.23886429
195	0x3e833083	0.2562295
196	0xbe0c037b	-0.13673203
197	0x3d858d81	0.0652113
198	0x3e806acd	0.25081483
199	0xbdc1d0db	-0.09463664
200	0xbea70e70	-0.32628202
201	0xbe86582a	-0.2623914
202	0xbbb0e987	-0.0053989324
203	0x3e66dd0f	0.22545265
204	0xbe854f6d	-0.2603716
205	0xbe52fbcd	-0.20603867
206	0x3dd6aae9	0.10481817
207	0xbe7a0a4e	-0.24417993
208	0x3e209a7a	0.15683928
209	0x3da69a90	0.08134949
210	0xbbd9eac8	-0.0066503026
211	0xbe8033f4	-0.25039637
212	0xbe7b3732	-0.24532774
213	0xbdc31090	-0.095246434
214	0xbdc7af1e	-0.09750198
215	0x3e585918	0.21127737
216	0xbe8ef7d2	-0.27923447
217	0x3d47133f	0.04860234
218	0x3ea0b0fb	0.31385025
219	0x3e9fdfa1	0.31225303
220	0xbe0a34af	-0.1349666
221	0x3e0278a4	0.12741333
222	0x3e44f599	0.19234313
223	0x3e4b84b8	0.19874847
224	0x3ba9e29c	0.0051844846
225	0x3e830ff0	0.25598097
226	0xbbfda65d	-0.0077407793
227	0x3e2be09c	0.167849
228	0x3e3201bc	0.17383474
229	0x3ea22ca7	0.31674692
230	0x3cdfd05a	0.02732103
231	0x3e2c1f2d	0.16808768
232	0xbeb3097f	-0.34968182
233	0xbeb1e9c8	-0.34748673
234	0xbcab5041	-0.020912291
235	0xbdc91414	-0.09818283
236	0x3e470e49	0.19439043
237	0xbea72c82	-0.32651144
238	0x3e05a03a	0.13049403
239	0x3d0612be	0.032732718
240	0x3d3f9153	0.04676945
241	0xbdfde870	-0.123978496
242	0xbe25b33f	-0.16181658
243	0xbe885586	-0.2662775
244	0xbea2b698	-0.31779933
245	0xbe9e75cf	-0.30949256
246	0x3e9256e0	0.28581905
247	0xbe24541c	-0.1604771
248	0xbe076529	-0.13222183
249	0x3d93ec84	0.07222846
250	0x3d9c4d0c	0.07631883
251	0xbe5f0379	-0.21778668
252	0x3d17a91a	0.037026502
253	0x3d028434	0.03186436
254	0xbdceddf6	-0.101009294
255	0xbe12ca66	-0.14335021

net.odeblock.net.odefunc.net.0.bias f4 [100]
0	0xbe8ea1f4	-0.27857935
1	0xbe85d70d	-0.26140633
2	0x3e8d9026	0.2764904
3	0x3d2598d5	0.040428955
4	0xbdf969d2	-0.12178387
5	0x3e37e255	0.17957433
6	0x3e9e5e66	0.30931395
7	0x3e1eee99	0.15520705
8	0xbcb470c1	-0.022026422
9	0xbe88c213	-0.26710567
10	0x3e2cc230	0.16870952
11	0x3e8accb5	0.27109304
12	0xbea1c8be	-0.31598467
13	0x3ea51efa	0.32250196
14	0x3e3487af	0.17629884
15	0x3e54774d	0.20748635
16	0x3cf0e596	0.02940635
17	0x3e16922c	0.14704198
18	0x3ea41f7f	0.3205528
19	0x3c1bb472	0.009503471
20	0x3e6de486	0.23231706
21	0x3e79b5c2	0.24385741
22	0xbdac8efb	-0.08425709
23	0xbe18dd56	-0.14928183
24	0xbe93ea7d	-0.28889838
25	0x3e8dd24b	0.27699503
26	0x3e6c4aa5	0.2307535
27	0x3d35a9ac	0.044351265
28	0x3e120bb2	0.14262274
29	0x3ddcb12b	0.107759796
30	0x3ab4383c	0.0013749669
31	0xbe446c81	-0.19182016
32	0xbe13cab3	-0.14432792
33	0x3db46cb9	0.088098
34	0xbca01245	-0.019539962
35	0xbe9fa299	-0.3117874
36	0xbd075b1b	-0.03304587
37	0xbd578f7f	-0.052627083
38	0xbe8256db	-0.2545689
39	0xbe3424e0	-0.17592192
40	0x3e22c726	0.15896282
41	0x3d68a2f5	0.056796033
42	0x3e7da71d	0.2477078
43	0xbe81acda	-0.25327188
44	0x3e410d44	0.18852717
45	0x3df225a7	0.11823588
46	0x3dc43e9f	0.095822565
47	0xbe1045f9	-0.14089192
48	0xbdd9cff4	-0.10635367
49	0xbd8cd274	-0.06876078
50	0xbd36b805	-0.04460909
51	0x3ea46f27	0.32116053
52	0xbde3e838	-0.111282766
53	0x3ddd7d8c	0.10814962
54	0xbc8b72c6	-0.017022502
55	0xbe633507	-0.22188197
56	0xbe6ef94d	-0.23337288
57	0x3b832605	0.004002335
58	0x3e30c21b	0.17261545
59	0x39738cda	0.00023226757
60	0x3da9363c	0.082622975
61	0xbe5a52a4	-0.21320587
62	0x3e04932c	0.12946767
63	0xbe16b078	-0.14715755
64	0xbe4d6219	-0.20056953
65	0xbe836aaf	-0.2566733
66	0xbea8a058	-0.32934833
67	0xbe979ed9	-0.2961338
68	0xbe7fcecf	-0.24981235
69	0x3d2ae3fa	0.04172132
70	0x3e03eb78	0.12882793
71	0xbcb05211	-0.021523507
72	0xbdc2b8a7	-0.09507876
73	0x3cc3002f	0.023803798
74	0x3e9f36f9	0.31096628
75	0x3e806d76	0.25083512
76	0xbd23d9f3	-0.040002774
77	0xbdd482e2	-0.103765264
78	0x3d8bcd85	0.06826309
79	0x3e9d8f39	0.30773333
80	0x3d71a7fa	0.058998086
81	0x3eaa821b	0.33302388
82	0x3d841197	0.064486675
83	0x3ddeb90f	0.10875141
84	0xbd5b681d	-0.053566087
85	0xbe5abc28	-0.21360838
86	0xbd3bbc06	-0.04583361
87	0xbcd8927b	-0.026437035
88	0x3e24c683	0.16091351
89	0xbe2bf263	-0.16791682
90	0xbe1506aa	-0.14553323
91	0x3dd3fe8e	0.10351287
92	0xbdf279a6	-0.11839609
93	0x3e526add	0.20548578
94	0x3dcb2304	0.09918788
95	0x3e3f4f11	0.18682505
96	0x3e8fc531	0.28080133
97	0xbe84ced6	-0.25939053
98	0x3e8bba0c	0.2729038
99	0xbe840d4e	-0.257914

net.odeblock.net.odefunc.net.2.weight f4 [100, 100]
0	0x3cd99589	0.026560562
1	0xbd99ebbb	-0.07515665
2	0x3b877d4b	0.004134809
3	0xbd78dc7b	-0.06075714
4	0xbd8a5823	-0.06755092
5	0x3dcc9513	0.09989371
6	0x3c5d8c27	0.013522184
7	0xbcba1426	-0.022714686
8	0x3d94f917	0.072740726
9	0x3c3b2aed	0.0114238085
10	0xbd5711fe	-0.052507393
11	0xbd385b42	-0.045008905
12	0x3cae38e3	0.02126736
13	0xbb5e7cf7	-0.0033948997
14	0x3cfdbbcb	0.030973336
15	0x3da36610	0.07978451
16	0xbd416efe	-0.04722499
17	0x3dad82f3	0.08472242
18	0x3d403e73	0.046934556
19	0x3d03f9a6	0.032220505
20	0x3d27a7bc	0.04093145
21	0xbd6a6582	-0.05722571
22	0x3d2fb5d7	0.042898025
23	0x3cd3cc75	0.025854329
24	0xbc39798c	-0.011320483
25	0xbcebb408	-0.028772369
26	0x3ca80998	0.020512387
27	0x3d02f95f	0.0319761
28	0xbd0f39bd	-0.034967173
29	0x3ccd1af8	0.025037274
30	0xbd9a3818	-0.0753023
31	0xbdbb98c1	-0.09159995
32	0xbb3ca9d0	-0.002878774
33	0xbd151b3a	-0.03640292
34	0x3cbd365b	0.023097208
35	0xbd341a6d	-0.043970514
36	0xbcddd7aa	-0.027080376
37	0xbd8bce5f	-0.068264715
38	0xbdafe551	-0.085886605
39	0xbd61b90d	-0.05510812
40	0xbd1bb444	-0.03801371
41	0xbc89762c	-0.016779982
42	0xbd1dae1d	-0.038496125
43	0x3cec1039	0.02881633
44	0xbda38ea7	-0.07986193
45	0xbb27e928	-0.002562115
46	0xbd9f192d	-0.07768474
47	0xbc7ecfd3	-0.015552479
48	0x3cc31b99	0.02381687
49	0xbdc65108	-0.09683424
50	0x3d61bd41	0.055112127
51	0xbcaf9dd9	-0.021437572
52	0xbdb34f04	-0.087553054
53	0xbd9e2761	-0.07722355
54	0xbdce7a77	-0.10081952
55	0xbda195fd	-0.07889936
56	0x3acec83f	0.0015776231
57	0x3d318da6	0.043347977
58	0xbdab96a0	-0.08378339
59	0xbd6d6656	-0.057958923
60	0x3ca3d13e	0.019997235
61	0xbc92e25c	-0.017930202
62	0xbd218145	-0.03942992
63	0x3d02d545	0.03194167
64	0xbc84f789	-0.016231315
65	0x3d934532	0.07190932
66	0xbd0df0ba	-0.034653403
67	0xbd399a74	-0.045313314
68	0x3d3847e8	0.04499045
69	0x3d66fd2c	0.056393787
70	0xbd9ae5e7	-0.07563382
71	0x3d87a23b	0.0662274
72	0xbc830db1	-0.01599774
73	0x3d76dcf8	0.060269326
74	0x3d9575cd	0.07297859
75	0xbd848563	-0.06470754
76	0xbcd41d6f	-0.025892941
77	0x3c8cc2cb	0.017182728
78	0x3dde92d7	0.10867851
79	0x3da3dd6d	0.08001218
80	0xbd9b6723	-0.07588031
81	0x3d512696	0.05106219
82	0xbb18d743	-0.0023321665
83	0xbcead671	-0.028666707
84	0x3d340fd8	0.043960422
85	0x3d65e3e3	0.056125533
86	0x3c45d4b8	0.012074642
87	0xbd896d0a	-0.06710251
88	0x3b73b96f	0.0037189384
89	0x3c72d7eb	0.014821987
90	0xbcc1824d	-0.023621703
91	0x3d7489e4	0.059701815
92	0xbcc2a25b	-0.023759058
93	0x3d80d8b7	0.06291335
94	0xbc33be1f	-0.010970621
95	0xbd85ae07	-0.06527334
96	0xbc9c64e6	-0.01909108
97	0x3bcf308b	0.0063229254
98	0x3c16460a	0.009171972
99	0xbd3ba33a	-0.04580996
100	0xbd906271	-0.07050026
101	0x3d5e380f	0.05425268
102	0x3d9dc0ae	0.07702766
103	0x3d3d62a0	0.046236634
104	0xbc7c4af1	-0.015398727
105	0xbda1ed9c	-0.079066485
106	0xbd38dd4e	-0.045132928
107	0xbc9a857e	-0.018862482
108	0x3d600b95	0.054698545
109	0x3d539454	0.05165513
110	0x3d900a2d	0.07033191
111	0x3cda3d1e	0.026640471
112	0x3c1113ce	0.008854819
113	0xbdba0849	-0.090836115
114	0xbda3c60e	-0.0799676
115	0xbd3eb810	-0.046562254
116	0x3dd5743f	0.10422563
117	0x3c6797d2	0.014135318
118	0xbd5fb13e	-0.05461239
119	0xbda48626	-0.08033399
120	0xbdbd64f0	-0.09247768
121	0xbd4423ac	-0.04788558
122	0x3d21f847	0.039543416
123	0xbda8ef02	-0.08248712
124	0xbc35f642	-0.011106076
125	0x3d6ab471	0.05730099
126	0xbd8af638	-0.06785244
127	0xbd4d78ad	-0.050163914
128	0x3aa28d60	0.0012401752
129	0x3c826235	0.01591597
130	0x3db2b215	0.08725373
131	0x3daba01f	0.0838015
132	0xbce2c4a2	-0.027681652
133	0x3bc80cea	0.006105055
134	0xbdb81486	-0.089882895
135	0x3d9c82a1	0.07642103
136	0x3d1c7250	0.038194954
137	0xbd2afac7	-0.041743066
138	0xbb260ac4	-0.0025336007
139	0x3c767613	0.0150427995
140	0x3d2024e9	0.0390977
141	0x3db62be5	0.08895091
142	0x3c13fe75	0.009032835
143	0xbd402876	-0.046913587
144	0x3d49365e	0.049124114
145	0xbd18517a	-0.037187077
146	0xbd2d19cd	-0.042260934
147	0xbd50de7e	-0.050993435
148	0xbd3d3a35	-0.04619809
149	0x3d01af2a	0.03166119
150	0x3db85c16	0.09001939
151	0xbdc965de	-0.09833883
152	0xbd8cf9ea	-0.06883605
153	0xbd81e665	-0.063427724
154	0x3d6acb42	0.057322748
155	0xbd92f8d3	-0.07176366
156	0xbcf1e0c2	-0.029526118
157	0x3bba32e0	0.0056823343
158	0x3d853ac9	0.06505353
159	0x3d0de99f	0.034646627
160	0xbda6a62a	-0.08137162
161	0x3d6be384	0.057590023
162	0x3d13b2f0	0.03605932
163	0xbcba2893	-0.022724425
164	0x3d1af6ea	0.03783313
165	0xbd86d8db	-0.06584331
166	0x3cb81a66	0.022473525
167	0xbd984f4e	-0.07437001
168	0x3db814b4	0.08988324
169	0xbdcf1b5f	-0.101126425
170	0x3d11447a	0.035465695
171	0x3d843dfa	0.064571336
172	0xbcbbce10	-0.022925407
173	0x3c908e1a	0.017645884
174	0xbd8d38cd	-0.068955995
175	0x3d670c84	0.05640842
176	0x3dbeb871	0.09312523
177	0x3ccae9c6	0.024769675
178	0xbc348cce	-0.011019899
179	0x3c827522	0.015924994
180	0x3d054823	0.032539498
181	0xbdb47270	-0.0881089
182	0xbd4a0ac6	-0.04932668
183	0xbdc0c237	-0.094120435
184	0x3d5eefa0	0.054427743
185	0x3dbe2841	0.092850216
186	0xbd0951b3	-0.03352518
187	0xbd91d630	-0.07120931
188	0x3dc64252	0.09680618
189	0xbd3c8573	-0.046025705
190	0xbd7c71f2	-0.061632104
191	0xbd02c3fe	-0.031925194
192	0x3da7dc04	0.081962615
193	0xbd30f9b2	-0.043206878
194	0x3d66717c	0.05626057
195	0x3d15163e	0.036398165
196	0xbd6f255f	-0.05838525
197	0xbd80f33b	-0.062963925
198	0x3d525a63	0.05135573
199	0x3cf62170	0.030045241
200	0x3d998703	0.074964546
201	0x3d309a7f	0.04311609
202	0x3bdc1856	0.0067167683
203	0xbd69091d	-0.056893457
204	0xbdb22083	-0.08697607
205	0x3d1f4d46	0.038892053
206	0x3dc15d0a	0.09441574
207	0xbd2c30bc	-0.042038664
208	0x3d8b0a47	0.067890696
209	0x3ca1ba11	0.019742044
210	0x3d550008	0.052001983
211	0xbc760585	-0.015015964
212	0xbdae2a15	-0.0850412
213	0x3d82b378	0.06381887
214	0xbd1860c5	-0.03720166
215	0xbda5d631	-0.080974944
216	0x3b8b7210	0.0042555407
217	0xbd12bf26	-0.035826825
218	0xbdac8b0a	-0.08424957
219	0xbd5e3eea	-0.05425922
220	0xbc81fa5b	-0.01586645
221	0x3cfc5393	0.03080157
222	0xbd79fb8c	-0.06103091
223	0x3d69441c	0.05694972
224	0xbc5ee206	-0.013603693
225	0x3dae578c	0.08512792
226	0x3d005ce9	0.031338606
227	0xbda1140a	-0.0786515
228	0xbb9c25f8	-0.0047652684
229	0x3d0e1c4c	0.034694955
230	0xbda45531	-0.080240615
231	0xbcd19371	-0.025583
232	0x3d609d26	0.05483737
233	0x3c94ea54	0.018178143
234	0x3db06e21	0.086147554
235	0x3d1a44e4	0.037663355
236	0x3c34cb93	0.011034864
237	0xbd9a9381	-0.075476654
238	0xbd727c20	-0.059200406
239	0xbdc5c282	-0.0965624
240	0xbd3ee2bf	-0.04660296
241	0x3cd9336f	0.026513783
242	0xbcf91329	-0.030404644
243	0x3dc5f46d	0.09665761
244	0x3d0dd3ba	0.034625746
245	0xbb8616a8	-0.0040920563
246	0xbd27c766	-0.040961646
247	0x3d54bb6e	0.05193656
248	0x3c9d0c27	0.019170834
249	0x3d446440	0.04794717
250	0x3c4d7702	0.012540581
251	0xbd04f6cb	-0.032461923
252	0xbdc32596	-0.09528653
253	0xbc9c32ba	-0.019067157
254	0x3c6f1e73	0.014594662
255	0x3d01bbe2	0.03167332

net.odeblock.net.odefunc.net.2.bias f4 [100]
0	0x3d83df24	0.06439045
1	0x3cc19230	0.023629278
2	0x3cfbcf60	0.030738533
3	0xbb9d8873	-0.004807526
4	0xbca026ef	-0.019549815
5	0xbd83f44b	-0.064430796
6	0x3c96af85	0.018394241
7	0x3cf2bf31	0.029632183
8	0x3dc422ec	0.09576973
9	0x3d9a59e4	0.075366765
10	0xbb8f5fbe	-0.004375427
11	0xbda7bff8	-0.08190912
12	0xbd24eae8	-0.040263087
13	0x3c84f6d4	0.016230978
14	0xbd56d19a	-0.052445985
15	0x3d42d91e	0.04757034
16	0x3b79cf30	0.0038117878
17	0xbd681bb7	-0.056667056
18	0x3d57473b	0.052558165
19	0xbc3b9463	-0.011448952
20	0xbd0f0dac	-0.034925148
21	0xbcf3258f	-0.029680995
22	0xbd8aa205	-0.06769184
23	0x3d2f6722	0.042822964
24	0xbb9a7981	-0.0047141914
25	0xbcb77492	-0.022394452
26	0x3dca1aa7	0.09868365
27	0xbbbfbfae	-0.0058517074
28	0x3d9289da	0.07155199
29	0x3cdda3be	0.027055617
30	0x3d9e6a5f	0.077351324
31	0x3d643421	0.055713776
32	0x3cd3d783	0.0258596
33	0x3d5195bd	0.051168192
34	0xbdc32dd7	-0.09530228
35	0x3d7799d8	0.06044945
36	0x3d7b81c6	0.06140306
37	0xbd3cf84b	-0.046135228
38	0x3d46f09b	0.048569303
39	0xbcf53315	-0.029931584
40	0x3d261350	0.04054576
41	0xbd669c01	-0.05630112
42	0x3cb79c38	0.022413358
43	0xbcb5e088	-0.022201791
44	0xbd3807d0	-0.044929326
45	0x3d46c203	0.048524868
46	0x3d2f41a5	0.042787213
47	0x3daf6eee	0.0856608
48	0x3dacd1fa	0.08438487
49	0x3d70a4f4	0.05875106
50	0x3db531c8	0.08847386
51	0x3d83cb3d	0.06435249
52	0xbdcab044	-0.09896901
53	0xbdb59a31	-0.088673
54	0x3d05d282	0.03267146
55	0x3c9525ef	0.018206565
56	0xbd7e7081	-0.06211901
57	0x3d95e866	0.07319717
58	0x3d8fcf68	0.070219815
59	0xbd9b11bc	-0.07571742
60	0xbcce48ab	-0.025181135
61	0xbc8b877a	-0.017032374
62	0x3d8570ac	0.06515631
63	0x3d8ec25f	0.06970667
64	0xbba4bc1d	-0.0050273077
65	0x3d4a209b	0.0493475
66	0xbdc38859	-0.095474906
67	0xbd8e1fc0	-0.069396496
68	0x3d727e45	0.05920245
69	0xbdb6a9eb	-0.08919128
70	0xbcc1f829	-0.023677902
71	0xbd9c1e3e	-0.07622956
72	0x3ce8fa93	0.028439796
73	0x3ba41836	0.005007769
74	0x3d051dfd	0.032499302
75	0x3ca7acc2	0.02046812
76	0x3dc2ea69	0.095173664
77	0xbd2c18b7	-0.042015757
78	0x3d49118b	0.049088996
79	0x3d397712	0.04527957
80	0xbd10a996	-0.03531798
81	0xbd992f60	-0.07479739
82	0x3d443c8e	0.047909312
83	0xbcbaefe8	-0.022819474
84	0xbc4b07d1	-0.012392
85	0x3d8807c0	0.06642103
86	0xbdc2a520	-0.09504151
87	0xbdae1f1e	-0.08502029
88	0xbdc9ec89	-0.098595686
89	0x3baf2e84	0.0053461213
90	0x3d5cd539	0.053914282
91	0xbd0144b0	-0.031559646
92	0xbddb39b5	-0.10704366
93	0xbd9c305c	-0.07626411
94	0xbcba7142	-0.022759084
95	0xbc888ce8	-0.016668752
96	0x3dac4729	0.0841201
97	0xbcba8d71	-0.022772523
98	0x3b96a246	0.004596981
99	0x3d8773af	0.06613862

net.odeblock.net.odefunc.net.4.weight f4 [8, 100]
0	0x3cf78571	0.030214997
1	0xbcf5ba6e	-0.029996123
2	0x3ccb07c7	0.024783982
3	0xbc727be2	-0.014800044
4	0x3d124b67	0.03571644
5	0xbd0235f7	-0.031789746
6	0x3d95e843	0.07319691
7	0x3b42fd77	0.0029753128
8	0x3d3f1e03	0.04665948
9	0xbaa49924	-0.0012557846
10	0x3da34891	0.07972825
11	0x3daaedc8	0.083461344
12	0x3db47e09	0.08813102
13	0x3ce45847	0.027874125
14	0xbd76a587	-0.060216453
15	0xbcb25d05	-0.02177287
16	0x3c230da2	0.009951981
17	0x3d73a3a9	0.05948225
18	0xbd468bcb	-0.04847316
19	0xbdc58611	-0.09644712
20	0x3cfebf1b	0.031096986
21	0xbd8ab403	-0.06772616
22	0xbc2aafc2	-0.0104178805
23	0x3c894ffc	0.016761772
24	0xbd7e03a8	-0.062015206
25	0x3d35b06e	0.04435771
26	0xbd56b6b6	-0.05242034
27	0xbcbcd846	-0.023052346
28	0xbd531397	-0.051532354
29	0x3db02af6	0.08601944
30	0xbc24a52b	-0.010049145
31	0xbccaaa1d	-0.02473932
32	0x3c1229b7	0.008921078
33	0x3d3703c8	0.04468134
34	0xbd894487	-0.06702524
35	0x3d1ff734	0.03905411
36	0xbc5a04ef	-0.01330684
37	0xbb387f79	-0.0028152151
38	0xbd800496	-0.06250875
39	0xbdc5fcfd	-0.09667394
40	0xbd3babdd	-0.0458182
41	0xbcc98413	-0.02459911
42	0x3d0ac3c2	0.033878095
43	0xbd42f026	-0.047592305
44	0x3da789d4	0.081805855
45	0xbd603767	-0.054740336
46	0x3d7f9f2f	0.06240767
47	0xbd33f846	-0.043937944
48	0x3da81593	0.0820724
49	0xbc2ed703	-0.01067138
50	0x3dad77f6	0.08470146
51	0x3b2d4f56	0.0026444993
52	0x3dbc15b2	0.091838256
53	0x3da1eeb8	0.0790686
54	0xbd6a1121	-0.05714524
55	0xbbea32b4	-0.0071471576
56	0xbd4fba1a	-0.05071459
57	0x3dcb71d9	0.09933824
58	0x3d7ed6bd	0.06221651
59	0xbd4e3ab8	-0.050348967
60	0xbda3a80f	-0.07991039
61	0xbd8bd750	-0.06828177
62	0xba88eee6	-0.0010447174
63	0xbd04e687	-0.03244641
64	0x3bb54d83	0.0055329218
65	0x3db8d263	0.09024503
66	0xbcae519a	-0.021279145
67	0x3d3f6d8e	0.04673534
68	0xbc658896	-0.014009615
69	0xbd58d73b	-0.052939635
70	0x3d45d6ad	0.048300434
71	0x3d58c3ad	0.052920986
72	0xbd2a05c6	-0.041509412
73	0xbd43d3e9	-0.047809515
74	0xbcb06ca3	-0.021536177
75	0x3d632f2c	0.05546491
76	0xbdc2252e	-0.09479748
77	0xbc0c584d	-0.008565974
78	0xbd2be3ee	-0.041965418
79	0xbd9b47f5	-0.07582084
80	0x3dab46c9	0.083631106
81	0x3dbeaec1	0.093106754
82	0x3be04edd	0.0068453387
83	0xbd6b2d50	-0.05741626
84	0xbc9a1973	-0.018810963
85	0x3d064272	0.03277821
86	0x3d1adba1	0.03780711
87	0xbd46cb20	-0.04853356
88	0x3d15e512	0.03659541
89	0x3d20cad7	0.039255943
90	0x3d4534bf	0.048146006
91	0x3d88a69e	0.06672405
92	0x3d7861f0	0.060640275
93	0x3da1a804	0.078933746
94	0x3d9c62a7	0.07636004
95	0xbd191567	-0.037373926
96	0x3dbc744b	0.092018686
97	0xbcfe5900	-0.031048298
98	0x3c487600	0.012235165
99	0xbd9e41d4	-0.077273995
100	0x3caf3e99	0.021392154
101	0x3c5805f3	0.013185012
102	0xbd23cd6e	-0.039990835
103	0xbda8c0f8	-0.08239931
104	0x3d7ec0a0	0.06219542
105	0xbd96c9ce	-0.0736271
106	0xbd9b80db	-0.075929366
107	0xbd3fb059	-0.046799038
108	0xbce77fbc	-0.02825915
109	0xbc49112e	-0.012272162
110	0xbd908267	-0.07056122
111	0xbdad826a	-0.0847214
112	0xba4973e8	-0.0007684813
113	0xba319a2f	-0.00067749893
114	0x3d2334a5	0.039845128
115	0x3d2fe19a	0.04293976
116	0x3ca0d4db	0.019632747
117	0xbc79e396	-0.015252015
118	0x3dacb55c	0.08433029
119	0x3da0c8ae	0.078507766
120	0xbc6a75e0	-0.01431033
121	0x3d102657	0.035192814
122	0xbd9f89c7	-0.07789951
123	0x3d912001	0.070861824
124	0x3cfd0464	0.030885883
125	0xbd9e9a28	-0.07744247
126	0x3db9c284	0.09070304
127	0xbd9cdc95	-0.0765926
128	0x3d8ccb61	0.06874729
129	0x3d53f732	0.051749416
130	0x3d400bc1	0.04688621
131	0xbcc6c187	-0.024262203
132	0xbd7a25e4	-0.06107129
133	0x3cde098c	0.027104162
134	0x3d0c38cd	0.034233857
135	0x3c20ea98	0.0098215565
136	0x3d9da395	0.076972164
137	0x3dac9a82	0.084279075
138	0x3d6acf7f	0.05732679
139	0xbd84b4c9	-0.064797945
140	0xbd5d158e	-0.053975634
141	0xbdbfe353	-0.093695305
142	0x3db83eaf	0.08996331
143	0xbcae90c6	-0.021309268
144	0xbcec9218	-0.028878257
145	0x3b5abab1	0.0033375437
146	0x3d7202df	0.05908477
147	0x3ce3676b	0.027759274
148	0x3db388ce	0.08766328
149	0x3d1e59a0	0.03865969
150	0xbbfdb19a	-0.007742119
151	0x3d854fda	0.06509371
152	0xbd9c6113	-0.07635703
153	0xbd4ef094	-0.050522402
154	0xbc6f2203	-0.014595511
155	0x3d7afcdc	0.0612763
156	0x3d8087fd	0.06275938
157	0x3dc3afdf	0.09555029
158	0x3d3a820f	0.04553419
159	0x3d1ecec9	0.038771424
160	0x3ca963ff	0.020677565
161	0x3d84f5ad	0.064921714
162	0xbc7086a6	-0.01468054
163	0x3ace5fab	0.0015745064
164	0x3d9d482a	0.0767978
165	0x3cb41cee	0.021986451
166	0xbc5d4992	-0.01350631
167	0xbd343c4f	-0.044002827
168	0x3ceaf45e	0.028680976
169	0xbd8aa74d	-0.06770191
170	0xbd7a5584	-0.06111671
171	0xbc04d32e	-0.00810699
172	0xbd61fa8d	-0.055170584
173	0x3ae5b2d6	0.0017524611
174	0xbd90a0cd	-0.0706192
175	0xbcedc5fa	-0.029025067
176	0x3d1769f7	0.03696629
177	0xbd3bd10f	-0.04585367
178	0xbd4d335b	-0.050097805
179	0x3c9e06ab	0.019290289
180	0xbd376941	-0.044778112
181	0x3cd95e3d	0.026534194
182	0xbd6c93d3	-0.057758164
183	0xbd87445c	-0.066048354
184	0x3cfce418	0.030870482
185	0xbd3ee7ee	-0.046607904
186	0x3d36f0db	0.04466329
187	0xbcb578fe	-0.02215242
188	0xbd990727	-0.07472067
189	0xbcb16e2d	-0.021658981
190	0xbd846ab9	-0.06465668
191	0xbda96312	-0.08270849
192	0xbcabc07b	-0.020965805
193	0xbbc6344f	-0.006048716
194	0x3d2f5d5c	0.042813644
195	0x3d5473e2	0.051868327
196	0xbdb01636	-0.085979864
197	0xbd969216	-0.073520824
198	0x3cc9471d	0.024570042
199	0xbc06e195	-0.008232494
200	0x3d9d2140	0.076723576
201	0xbd38d8ac	-0.04512851
202	0x3d83d0aa	0.06436284
203	0xbcaa125e	-0.020760711
204	0xbd5811f3	-0.052751493
205	0xbdb331f9	-0.08749766
206	0xbd6ba622	-0.057531483
207	0xbd0b6714	-0.03403385
208	0x3c219cc7	0.009864039
209	0xbdb717fb	-0.08940121
210	0x3d468571	0.048467103
211	0xbd69385f	-0.056938525
212	0xbd324908	-0.04352668
213	0x3c9be896	0.019031804
214	0xbd35ea13	-0.044412684
215	0x3c1017a8	0.008794703
216	0xbdbf6765	-0.09345893
217	0xbd3bcf98	-0.045852274
218	0xbbe0fb22	-0.006865875
219	0xbd65175b	-0.055930477
220	0xbd10b0e4	-0.035324946
221	0xbd3166e4	-0.043311015
222	0xbcf31ae0	-0.029675901
223	0xbc88e7a5	-0.01671202
224	0x3d9ca750	0.076491
225	0xbd9c986f	-0.07646262
226	0x3d0258fc	0.031823143
227	0xbce67359	-0.028131174
228	0x3cf9ccdc	0.030493192
229	0xbd5e3b50	-0.054255784
230	0x3d4090de	0.047013156
231	0x3d572ac1	0.052531008
232	0xbd9c6ee8	-0.07638341
233	0x3d8485ff	0.0647087
234	0xbc950ff5	-0.018196085
235	0xbbfc9f07	-0.007709387
236	0xbc8d5a91	-0.0172551
237	0x3bfe836f	0.007767133
238	0xbd99131f	-0.0747435
239	0x3ce49ad5	0.02790586
240	0xbcc95293	-0.024575507
241	0x3da9071a	0.08253308
242	0x3d96ba58	0.07359761
243	0xbd7626df	-0.060095664
244	0xbd95eaea	-0.07320197
245	0xbc83433a	-0.016023267
246	0xbcef7b5b	-0.029233625
247	0x3a53db9a	0.00080817344
248	0xbdae55dd	-0.08512471
249	0x3ceed932	0.029156301
250	0xbd07df75	-0.03317209
251	0x3dbaabf1	0.091148265
252	0xbd5ee2b9	-0.05441544
253	0x3d2d7c58	0.04235491
254	0x3d38c513	0.04510982
255	0x3d7ff8ec	0.06249325

net.odeblock.net.odefunc.net.4.bias f4 [8]
0	0x3db0abf8	0.086265504
1	0x3d16de3d	0.036833037
2	0x3d57ca54	0.05268319
3	0x3d9d0598	0.076670825
4	0xbd66acac	-0.056317016
5	0x3d76dfb9	0.060271952
6	0x3ddae4b4	0.10688153
7	0x3da7d87c	0.08195588

net.linear.weight f4 [3, 8]
0	0xb97b3989	-0.00023958659
1	0x3902a7e9	0.00012460318
2	0x38bb995f	8.9454225e-05
3	0xbe397595	-0.1811126
4	0xbe88e645	-0.26738182
5	0xbdd9836b	-0.10620769
6	0x3e7c6268	0.24646914
7	0xbc93664a	-0.017993111
8	0xb8f523ac	-0.00011689155
9	0xb74ee2ab	-1.2331332e-05
10	0x3a44a74e	0.0007501737
11	0x3e8faa99	0.28059843
12	0xbeb75166	-0.3580429
13	0x3d45dbb6	0.048305236
14	0x3e9cdbe1	0.30636504
15	0x3e979fbc	0.29614055
16	0xba4ef2f7	-0.0007894481
17	0x3a89185d	0.0010459531
18	0x3952472c	0.00020053674
19	0x3dc1ad7c	0.09456918
20	0x39fceffd	0.0004824399
21	0x3e5ca9d3	0.21549158
22	0xbd96ae97	-0.07357519
23	0x3d412210	0.047151625

net.linear.bias f4 [3]
0	0x38d8c693	0.0001033667
1	0x36dd3a8b	6.5931285e-06
2	0xb8a32c35	-7.78068e-05
