mlp_ode.pt (torch, 56311 bytes, 8 tensors)

net.odeblock.net.odefunc.net.0.weight f4 [100, 15]
000000 a1 63 c5 3c 96 a7 32 be e4 ef 08 bd 4f d3 0e 3e
       0.024095358 -0.17446741 -0.033431903 0.13947795
000010 09 47 e4 3c 15 ec 66 3e da 2a a6 bc 39 fb 91 3d
       0.027865903 0.22550996 -0.020284105 0.07127995
000020 c2 09 58 3e 35 50 23 be bc a5 29 3c f0 f4 25 be
       0.21097472 -0.15948565 0.010354456 -0.16206717
000030 10 1a f7 3d ed 1b 42 3e 00 c7 03 bd 36 bc 84 bd
       0.12065518 0.18955965 -0.032172203 -0.06481211
000040 b3 1f a4 3d 24 f0 5a be f0 9c 95 bd 1d c9 ed bd
       0.08013859 -0.21380669 -0.07305324 -0.11610625
000050 46 b0 01 be 71 15 fe 3c 83 67 d7 bd f5 b0 c9 bd
       -0.12664899 0.031016083 -0.1051779 -0.09848205
000060 c5 97 89 bd bc a6 97 bd 97 2f 76 3e 95 0c 29 be
       -0.06718401 -0.07404849 0.24041592 -0.16508706
000070 9e 36 5a be 3e e8 98 bd 8c 6c f6 3b 45 15 19 be
       -0.21309897 -0.07466172 0.007520264 -0.1494952
000080 c1 be ae bb 14 cd 82 be 80 4a 47 bd 65 b1 ce bd
       -0.005332798 -0.25547087 -0.048655033 -0.10092429
000090 18 f3 4b 3c 07 c4 45 3e bd 2b 2d be 64 33 f9 3d
       0.012448095 0.1931306 -0.16911216 0.12168005
0000a0 96 15 5b bd 26 7f 0d 3e 28 67 71 3d 3c 00 67 be
       -0.053487383 0.13818035 0.058936268 -0.22558683
0000b0 e5 ab 93 3d 16 2f 5e 3b ec 7d ed bd ee 9b 45 bc
       0.07210521 0.0033902577 -0.11596283 -0.012061102
0000c0 8b 08 5a 3e 16 e3 65 be 40 8b cb bc b5 4e 41 3d
       0.21292321 -0.22449908 -0.024846673 0.0471942
0000d0 b3 82 6c 3e 1f ff 82 be 2e 82 12 3e 69 7c 02 3e
       0.23096733 -0.25585267 0.14307472 0.12742771
0000e0 08 af 23 be a2 b2 80 bd e0 e9 13 be 1c a3 8f bd
       -0.15984738 -0.062840715 -0.14444685 -0.070135325
0000f0 3b e4 60 be fc ca db 3d 14 5f 8d bd 90 19 54 be
       -0.21962063 0.107320756 -0.069029 -0.20712876
000100 a5 d4 2c bd 5d 35 86 3d 21 2c c3 bd a0 be 6f be
       -0.04219498 0.06553147 -0.09529901 -0.23412561
000110 b8 8d 4e 3e dd 7a d5 3c bc 90 47 be 89 5f 6e be
       0.20171249 0.026059562 -0.19488806 -0.23278631
000120 c3 83 38 be 7a bf 5b be 60 49 3d be d0 a3 8e bd
       -0.18019013 -0.21459761 -0.18485022 -0.069648385
000130 98 d5 aa 3c 5f 99 58 be eb 3e ab 3d 5c c3 4f be
       0.020853803 -0.21152256 0.0836161 -0.20289367
000140 dd 24 68 3e 5b dd b2 3d e2 ee 1e be e5 93 87 be
       0.22670312 0.087336265 -0.15520814 -0.26480022
000150 8e 1e 2a bc 10 50 0b be a9 98 ae bd 87 7e 59 3e
       -0.010383261 -0.1360476 -0.08525211 0.21239673
000160 bb 18 ad bd 4e ce 6b be 67 87 61 3d 49 5e e6 bd
       -0.084519826 -0.23027918 0.05506077 -0.11248452
000170 7a da 81 bd 04 b4 ad bd 23 a6 15 be f1 82 f4 bd
       -0.06340499 -0.08481601 -0.14614157 -0.119390376
000180 56 36 1e 3e d3 46 65 3b 4d 4b 61 bd 86 35 a6 bd
       0.15450415 0.0034984841 -0.055003453 -0.081156775
000190 f0 bc d7 3c 06 60 28 3e 38 4e b6 3c b4 6d cc 3d
       0.02633521 0.1644288 0.022254094 0.09981862
0001a0 65 1a 17 be f1 23 51 bd 94 e0 13 bc 02 ea 87 3e
       -0.14756162 -0.051059667 -0.009025712 0.2654572
0001b0 8b b8 64 be df 5c 27 3e 73 a7 07 bd 48 68 4d 3d
       -0.22336023 0.16344021 -0.033118676 0.05014828
0001c0 2e da 4f 3e b1 29 5e 3e 84 44 47 be 3e 46 41 bd
       0.20298073 0.21695592 -0.1945973 -0.04718613
0001d0 0e 60 55 3d 4e e5 5c be 05 37 2f 3d 50 db 16 bd
       0.052093558 -0.21571848 0.04277708 -0.036830246
0001e0 ef 23 47 bd 16 49 5d be b8 04 78 3d 71 f2 ce 3c
       -0.048618253 -0.21609911 0.060551375 0.02526209
0001f0 3d 6b 93 3e e2 4b 60 3e d1 54 38 be 68 5d 1b 3e
       0.28792754 0.21903947 -0.18001105 0.1517235
000200 05 22 4a be 0d 59 7c bd 66 2a 45 3d 32 31 06 be
       -0.1973954 -0.061608363 0.048136137 -0.13104704
000210 c3 93 05 3e 0c c1 69 3e 48 87 7c be de 32 27 3e
       0.13044648 0.22827548 -0.2466098 0.16327998
000220 d1 14 68 3e ca 37 8a 3e 04 0c 10 3d c5 df 8c 3d
       0.22664191 0.2699569 0.03516771 0.06878618
000230 9a 69 38 3e 81 dc 80 3e a0 d7 db bd d4 e7 c4 bd
       0.18009034 0.2516823 -0.107344866 -0.0961453
000240 3c e3 88 be 29 30 ef 3d c0 ec 84 3e 8a 28 77 3e
       -0.26735866 0.11679108 0.25961876 0.24136558
000250 c8 bd 03 be df 17 e6 bd 14 ec 64 be 61 ae 40 3d
       -0.12865365 -0.11235022 -0.22355682 0.0470413
000260 b7 4e a8 3c ba 28 21 be 09 e7 ec bd 8b 0b 65 bc
       0.020545347 -0.15738192 -0.11567504 -0.013979803
000270 30 8e 68 3d bf 42 3a 3e 01 aa 83 bd 96 b0 c1 bd
       0.056776226 0.18189524 -0.0642891 -0.09457509
000280 eb 2b ad 3d 29 eb 5f 3d 0f 5d 56 3e e1 39 0f be
       0.08455642 0.054667626 0.20933937 -0.13986923
000290 20 cd 69 3d ff 4b b3 bd 27 14 93 3d 13 f1 42 3e
       0.057080388 -0.087547295 0.07181578 0.19037275
0002a0 1f d2 2d be f2 93 3d 3a e0 34 e3 bd e2 07 6c 3e
       -0.16974686 0.00072318234 -0.110940695 0.23049882
0002b0 3e 4e 73 3e 33 ad 2e 3e c3 2c 65 3e fe 00 0a be
       0.23760316 0.17058258 0.22380356 -0.13476941
0002c0 67 d0 3f be 0b 1b 6c bd 03 9d 4b 3d 24 89 89 3e
       -0.18731843 -0.057642978 0.049710285 0.26862442
0002d0 b0 5b a1 3d a4 35 80 3c 95 a2 00 3d a0 67 92 3d
       0.07878816 0.015650578 0.03140505 0.07148671
0002e0 32 e6 0c 3e bc b4 80 ba 22 ea c0 bd 39 b1 d6 3d
       0.13759688 -0.0009819488 -0.09419657 0.10483021
0002f0 18 24 65 3e 2b 77 c2 bc bf 30 7e be ec 73 6a 3e
       0.2237705 -0.023738464 -0.24823283 0.22895783
000300 77 43 76 bd e1 7a 6a be 52 93 b6 3d a6 34 99 3d
       -0.060122933 -0.22898437 0.08914818 0.07480745
000310 2d cf c3 3c c4 71 87 3e c7 e3 1e be d5 36 72 be
       0.0239025 0.26453984 -0.15516578 -0.2365373
000320 f0 65 18 3e e7 68 74 be 27 33 3e be d9 6f 26 3e
       0.14882636 -0.23868142 -0.185742 0.16253604
000330 10 62 74 be 15 a5 30 bd f7 44 dd bd 41 e0 52 3e
       -0.23865533 -0.043126184 -0.108041696 0.20593359
000340 81 e3 8c 3c 6e 71 6c 3e 94 2f 4e be 9e c1 d4 3d
       0.017198326 0.23090145 -0.20135337 0.10388492
000350 f4 57 7b be e5 a7 18 be 4e 52 42 be 28 99 06 3b
       -0.2454527 -0.14907797 -0.18976709 0.0020538066
000360 ec bb 17 3e 66 85 4d 3e 43 57 84 be 56 f3 19 be
       0.1481778 0.20070419 -0.25847825 -0.15034232
000370 b4 c2 a8 bd ee 33 3b be 0e 23 59 bd 06 dd 16 be
       -0.08240262 -0.18281528 -0.053011946 -0.14732751
000380 78 f1 38 3d 90 82 44 3d f4 6e 89 bd fc 30 7e be
       0.045152158 0.047976077 -0.06710616 -0.24823374
000390 b1 2c 81 be 1f 58 54 3d 85 fc 69 3e 44 f0 ab bd
       -0.2522941 0.05184185 0.22850235 -0.083954364
0003a0 13 ae 50 be 9b 33 0e 3d 02 e2 9c bd 20 b0 7e be
       -0.20378904 0.034717184 -0.07660295 -0.24871874
0003b0 72 58 25 be 27 c3 84 be 71 41 6d be c5 dd 30 be
       -0.1614702 -0.2593014 -0.23169495 -0.17272098
0003c0 e7 2b 4c 3d a4 2e 5e be aa 92 0b be 69 c4 43 3e
       0.049846556 -0.2169748 -0.13630167 0.19117893
0003d0 50 58 99 bd ba 03 14 be 87 d2 39 bd 3f 69 9c bc
       -0.074875474 -0.14454547 -0.04536679 -0.019093154
0003e0 92 c7 03 3e 7a 10 35 bb a8 5b 92 bb e7 c1 6e 3e
       0.12869099 -0.002762823 -0.0044664927 0.23316155
0003f0 ff d5 9f 3d 48 59 da bd d2 d5 25 3e b5 c5 1d 3e
       0.078044884 -0.1066156 0.16194847 0.1540745

net.odeblock.net.odefunc.net.0.bias f4 [100]
000000 45 4d 83 bc 4f a7 71 3d e0 c9 27 be 74 db bd 3c
       -0.016028056 0.05899745 -0.16385603 0.023175932
000010 70 b5 6a 3e 60 49 0c bd 9b c4 5d 3d 2c 66 2b 3e
       0.22920775 -0.034249663 0.054142576 0.16738194
000020 d7 f6 53 be 05 be 9d bb d1 52 a3 bd 70 90 01 be
       -0.2069963 -0.004813912 -0.0797478 -0.12652755
000030 69 ad 3c bd 8d bf 2c bc 07 a2 29 bd 97 4a d5 bd
       -0.046063814 -0.010543716 -0.041414287 -0.104146175
000040 f5 66 18 3b 74 c8 69 3e 08 a8 bf bc b9 bc 1a be
       0.0023254727 0.22830373 -0.023395553 -0.15111054
000050 4b f7 3a be 8f be 74 3e 0c d8 5d 3e 12 0d db bd
       -0.18258397 0.23900817 0.21664447 -0.10695852
000060 aa f4 73 3b a1 fe 53 be d8 95 ac 3d f1 5f 95 bd
       0.0037224689 -0.20702602 0.08427018 -0.0729369
000070 2c 96 ca 3d 0b 87 4b 3e 61 7c fa 3d 4c 0d 07 3e
       0.09891924 0.19875734 0.12230755 0.13188666
000080 36 a9 71 3d 70 1f 35 3e e7 ed d9 3d 05 89 33 bc
       0.058999263 0.17687774 0.106410794 -0.010957961
000090 fa a0 ca bd 01 bd b0 3d 79 68 da 3d 8f 2f 35 be
       -0.09893985 0.086298 0.10664458 -0.17693923
0000a0 48 e0 4e 3e 41 b1 53 be 61 a2 48 be ba 22 50 3e
       0.20202744 -0.20673086 -0.19593193 0.20325747
0000b0 6c 8f 77 3b 05 0b 10 3c 13 df 08 3e e7 f7 57 3e
       0.0037774695 0.00879169 0.13366346 0.21090661
0000c0 0a 79 f3 3d 6a 87 59 be 20 f1 53 3d 4f ae 00 be
       0.11888321 -0.21243063 0.051743627 -0.12566493
0000d0 f2 38 36 3e ef 76 82 bd aa 67 3d be 7d c1 9d 3d
       0.1779516 -0.06370341 -0.18496576 0.077029206
0000e0 25 9c c5 3b 8e 75 ca 3d 2b 53 63 be 50 52 5b be
       0.006030577 0.09885703 -0.22199695 -0.21418118
0000f0 6a 52 23 be 99 69 3a 3e 36 a4 2e 3e 6c 31 63 3c
       -0.15949407 0.18204345 0.17054829 0.013866764
000100 81 90 18 3e 60 8b f8 bc 7f 15 05 bd 13 ed 61 bd
       0.14898874 -0.030339897 -0.032491203 -0.055157732
000110 b4 aa 68 be fa 41 3b 3e 5c 64 77 be 34 19 24 be
       -0.22721368 0.18286887 -0.24159378 -0.16025239
000120 d1 d0 6d be 5d 48 41 be 93 fe f8 bc b9 77 5a 3e
       -0.23224188 -0.1887526 -0.030394828 0.21334733
000130 6a fc 45 3e c3 b8 cf 3c 05 18 7e bb 93 bd 5a be
       0.1933457 0.025356656 -0.003877164 -0.2136138
000140 80 fb 14 bd 37 fa bd 3a 4d 83 fd 3c ef e8 9a bd
       -0.03637266 0.0014494125 0.030946398 -0.0756396
000150 42 cb 16 bd dc a7 53 3e 40 f5 49 bd 2e b7 59 ba
       -0.036814936 0.20669502 -0.049306154 -0.0008305189
000160 e7 d7 98 3c 5d 69 f5 bd 11 63 72 3d a9 ab da 3d
       0.018657638 -0.11982987 0.05917651 0.10677273
000170 e1 e4 fa 3b e0 8e d1 bc 8d 41 b5 3d 5a a0 e5 bd
       0.007656679 -0.025580823 0.088503934 -0.11212225
000180 e2 33 74 be e7 69 78 bd 72 00 38 be 5e c3 88 bd
       -0.23847917 -0.06064787 -0.1796892 -0.06677888

net.odeblock.net.odefunc.net.2.weight f4 [100, 100]
000000 9e e3 82 bc 52 49 a8 bd 08 f0 4c bc b8 fe 71 bc
       -0.015977677 -0.0821711 -0.0125084 -0.014770202
000010 c2 82 45 bd aa b1 96 3d 8e 3f 9b 3d 59 03 b2 3d
       -0.048220403 0.073581055 0.075804815 0.08692045
000020 80 76 c8 3d 6e 71 6b bd 49 7a 75 bd 1a 8e ae bd
       0.09788227 -0.05748122 -0.059931073 -0.085231975
000030 c8 de 2e 3d 89 55 a1 3d c3 fa 86 bd 82 85 7e bc
       0.04269293 0.07877643 -0.06590798 -0.01553476
000040 b5 3e c9 3d 61 34 a3 3d 3a c2 1c bd 81 c0 87 bc
       0.098264135 0.07968975 -0.038271166 -0.016571285
000050 9e fc a5 bd ff 22 5a 3d 1b 0d 9c 3c 62 47 80 bd
       -0.081048235 0.05325603 0.019049218 -0.06263615
000060 87 49 03 3d e7 91 b4 bd 07 7b bd 3b 94 2a a0 bd
       0.032052543 -0.08816891 0.0057824883 -0.07820621
000070 4c 33 92 3d c2 eb 13 bd 50 ed 27 3d 12 88 a6 3d
       0.0713869 -0.036113508 0.040997803 0.08131422
000080 b1 8a 1e bd 0a 2b 06 3c 7b ea 55 bd 50 1d 7d 3c
       -0.038706485 0.008188972 -0.05222557 0.015448883
000090 63 8a 3c 3c 3c 12 bb bd 8e ee c9 3d 86 0a b3 bd
       0.011507603 -0.09134337 0.09859954 -0.087422416
0000a0 2c 4d f6 bc bc b8 24 bd 86 08 ab 3d 23 8a 48 bd
       -0.030066095 -0.04021524 0.08351235 -0.048959862
0000b0 88 98 86 bd 4d a0 46 3c 82 5c 55 3c 40 c9 55 bb
       -0.06572062 0.01212318 0.013022544 -0.0032621175
0000c0 b2 21 c5 bd f5 06 92 bd bc 7e 1f 3c 3e d0 37 3d
       -0.096255675 -0.07130233 0.009734806 0.04487633
0000d0 9c 88 b1 bd b9 90 3c 3d ce ad b5 3d 07 e7 be bb
       -0.08668634 0.046036456 0.08871041 -0.0058258804
0000e0 27 33 b5 3d e9 9d f3 bc dd ce d1 3d 2b a3 29 3d
       0.08847647 -0.029738383 0.10244534 0.041415375
0000f0 5d 77 d8 3d fd ae 57 3c cb 3f 51 bd 01 c3 a4 3d
       0.10569642 0.013164279 -0.05108623 0.080450065
000100 07 92 ef bd d5 1c c2 3d 79 6d b3 bd 70 07 9d bc
       -0.116977744 0.094781555 -0.087611146 -0.019168586
000110 4e 10 40 bd 09 47 ca 3d dd 51 98 3d 3d 1c 87 bc
       -0.04689055 0.0987683 0.07437489 -0.016492957
000120 e3 d4 9d bc e6 b5 c8 3d b9 88 0e bc ea 35 ca 3c
       -0.019266551 0.098003194 -0.008699589 0.024683911
000130 03 5c c3 bd 93 a6 80 bd 8b 80 1d bc ea 36 85 bd
       -0.09539034 -0.062817715 -0.009613167 -0.06504615
000140 e3 de e6 3c bc 53 23 bc 73 1c 44 3b a2 73 86 bc
       0.028182453 -0.009968694 0.0029924184 -0.01641256
000150 73 72 84 bd 7a 87 22 bd 5a b0 b1 bd 03 1c f1 3d
       -0.06467142 -0.03967998 -0.086762145 0.11772921
000160 36 0e 99 3d c1 70 b4 3d b3 ec c0 bd df 8c cb bc
       0.07473414 0.088105686 -0.09420147 -0.024847446
000170 b3 4e 2c 3d 40 26 e7 3c 0c 9d 46 bd 2d 32 84 3c
       0.04206724 0.028216481 -0.048489615 0.016137207
000180 42 82 b9 b9 41 c7 89 3d ca 11 f1 3d d8 d0 97 3d
       -0.00035383 0.06727458 0.11770971 0.07412881
000190 6b 1e b8 bc 8b e9 ca bc 53 ca d9 bd 8f 85 75 bb
       -0.022475442 -0.024769565 -0.106342934 -0.003746364
0001a0 a5 15 20 3d 7b e2 c2 3c a7 37 1a bd 53 0f 5e bd
       0.03908314 0.023789635 -0.03765073 -0.054213833
0001b0 ea bc 85 3b dd 8d 71 bc 5b 0a 26 3c e1 57 57 bd
       0.004081358 -0.0147432955 0.010134305 -0.052574042
0001c0 78 97 9c 3d a2 fb 84 3d 95 4c 84 bd e5 e3 fc bb
       0.07646078 0.06493308 -0.06459919 -0.007717597
0001d0 5e a4 9c 3d 15 8d 19 bd 02 7c 70 bc 0d 47 96 3d
       0.07648538 -0.037488062 -0.014678003 0.073377706
0001e0 ce e5 cc bc 8e 4f b4 3d a2 ea a7 39 c1 b7 c5 bd
       -0.025011923 0.08804236 0.00032027537 -0.09654189
0001f0 d6 5e 82 3d be cf e6 3c e6 ed cc bd c5 77 9e bb
       0.06365745 0.028175231 -0.10006313 -0.004836055
000200 ff 1a 66 bd 42 05 45 3c 61 40 4d 3d d4 7d c9 3d
       -0.05617809 0.012025179 0.050110225 0.09838453
000210 1d a1 55 bd 8d 62 53 bd 1a 50 dd bc dd 7c 8b 3c
       -0.052155603 -0.051607657 -0.027015734 0.017027313
000220 bf d8 60 bc da 92 87 bd bd c6 17 bd 6c d5 78 bd
       -0.013723551 -0.066198066 -0.037054766 -0.06075041
000230 ce 86 28 3d 37 c8 c5 bd 58 40 f3 bb d4 b0 65 bd
       0.041144185 -0.096573286 -0.007423442 -0.05607684
000240 50 52 0d bd 7e 95 86 3d 55 4b 45 3b b2 87 44 3d
       -0.034502327 0.06571482 0.0030104716 0.04798097
000250 b5 73 aa 3d 15 c9 68 3d d4 61 22 3d 53 32 90 bd
       0.083228506 0.05683239 0.039644077 -0.070408486
000260 26 e7 c3 3d ec ce 4b 3d 19 d2 f1 3c 33 79 48 bd
       0.095655724 0.049757883 0.029519128 -0.04894371
000270 58 96 78 3d af 3c ca bd f9 23 d2 bd 82 bc 73 3d
       0.060690254 -0.09874856 -0.102607675 0.059505947
000280 88 12 3c 3c fd 1d b9 bb 1b 5b 47 3d b2 e7 25 3c
       0.011479028 -0.005649327 0.04867087 0.010126041
000290 eb 8f 16 bc 56 52 c3 bd 61 97 36 bd f9 fb 94 3b
       -0.009189586 -0.09537189 -0.04457796 0.004546639
0002a0 85 d2 24 3d fa 08 80 bb c0 8a 5a bd 1e fe b1 bd
       0.04023983 -0.00390732 -0.05335498 -0.08691047
0002b0 a3 62 e7 3c ff 3a 5d 3d c9 fb 0c bd 13 be d8 3c
       0.028245276 0.05401134 -0.03441981 0.026457822
0002c0 0b d4 02 3d 2a 18 34 bd d4 97 56 3d 73 3c 1d bd
       0.0319405 -0.043968357 0.05239089 -0.038387727
0002d0 02 48 e9 bc b8 e5 bb 3b 26 e4 3a 3d 60 f3 d2 3d
       -0.028476719 0.0057341717 0.045627736 0.10300326
0002e0 f0 95 5a 3d f1 e6 95 bd 3f a3 16 3d 64 b1 db 3d
       0.053365648 -0.07319439 0.036776777 0.10727194
0002f0 93 f2 6e 3d c7 04 80 bc 5f 3d a2 3d 79 5a 39 3c
       0.058336806 -0.015627278 0.07921862 0.011313074
000300 92 2d 96 3d 0d 7c c8 3d 77 ff 97 bd 15 78 1d 3d
       0.073329106 0.09789286 -0.07421773 0.038444597
000310 b8 c0 77 3d 21 89 91 bd 71 f3 ea 3c c0 b6 02 3d
       0.060486525 -0.071062334 0.028680535 0.031912565
000320 b1 3b 62 3d 63 79 cb 3c 25 05 ec 3c dc d8 68 3c
       0.055232707 0.024838155 0.028811047 0.01421186
000330 6b 12 54 3d 4c 06 a5 bd fc 76 f6 bd a9 11 b0 bd
       0.051775377 -0.08057842 -0.12034413 -0.085971184
000340 2b 95 52 3d 9b 84 0d bd 2f 9c f2 3c d5 bc c4 3c
       0.05141179 -0.03455029 0.02961549 0.024015823
000350 f3 f6 f5 ba 32 55 8a 3c 9e bf 82 bd 91 68 8c bd
       -0.0018765613 0.016886327 -0.06384204 -0.06855882
000360 17 75 ce bc 4c 55 cd 3d e8 86 c8 3d 0d bb 06 bd
       -0.025202317 0.10026035 0.09791356 -0.03289323
000370 7e 85 96 3c 6b fb 26 3d b7 9d c1 3a e9 cd b2 3d
       0.0183742 0.040767115 0.0014771734 0.087306805
000380 df 7e 85 bd d6 40 a9 bc d8 90 9b 3d 79 41 02 bd
       -0.06518339 -0.020660799 0.07595986 -0.03180072
000390 06 06 1c 3d e2 59 ad bd 1b f5 bb 3d 27 61 79 3d
       0.038091682 -0.084644094 0.091776095 0.060883667
0003a0 a7 05 79 3d 34 39 51 bb d8 24 3c 3d d0 64 45 3c
       0.060796406 -0.0031924965 0.045933574 0.012047961
0003b0 91 fd c9 3d 4a 09 87 bd ec b4 cf bd 90 16 99 bd
       0.09862817 -0.065935686 -0.1014193 -0.074750066
0003c0 62 7a 01 bc de c7 9b 3d 1e ba ec bc 56 cd bc 3c
       -0.0079027135 0.07606481 -0.028897341 0.02304713
0003d0 05 1c a2 bb db c4 3c bd 62 a1 a5 bd 80 94 0b 3d
       -0.004947188 -0.046086174 -0.08087422 0.034077168
0003e0 fa 23 36 bb be f3 af bd d8 3e 79 bd 28 7c 9f bd
       -0.002779244 -0.08591412 -0.060850948 -0.07787353
0003f0 b4 95 b0 3d fa 00 63 bc 1f ef 6d bc 39 35 19 b9
       0.086223036 -0.013855213 -0.014522343 -0.00014611044

net.odeblock.net.odefunc.net.2.bias f4 [100]
000000 64 a5 34 3c 31 4d db bc db d5 37 bd 40 4c af bd
       0.01102576 -0.026770206 -0.044881683 -0.085594654
000010 20 52 7c 3d a2 02 83 bd e1 1c 1c bc 7e 7b 8c bd
       0.061601758 -0.063969865 -0.00952837 -0.06859492
000020 14 2f 94 3d 1c 59 13 3d 1b ce 68 bd b8 b7 b6 bc
       0.07235542 0.035973653 -0.056837182 -0.0223044
000030 9d 4e ba 3c f4 09 73 3c 64 a4 2d 3d 55 ea 86 bd
       0.022742564 0.014833916 0.042393103 -0.06587664
000040 38 26 c9 bd 0f 12 71 bd e7 c9 b0 3d 3a d4 ca bc
       -0.09821743 -0.058855113 0.0863226 -0.0247594
000050 d7 22 51 3d da d5 02 3d 00 2c d8 3c e8 bd 1c bd
       0.051058616 0.031942226 0.026388168 -0.038267046
000060 4a 13 85 3d 20 a5 c4 3d d0 13 d4 bc fc 27 c4 3d
       0.0649782 0.096018076 -0.025888354 0.09577939
000070 67 cb 17 3d d5 67 18 bb 39 78 66 bc 8c bf 22 3d
       0.037059214 -0.0023255248 -0.014066749 0.039733455
000080 88 ff 0d 3d e7 45 95 3d d0 a0 7a 3d 99 f0 aa bd
       0.03466752 0.072887234 0.06118852 -0.083466716
000090 66 8f 24 bd e3 32 84 3d 45 4c 88 bd e3 24 5a 3d
       -0.040175818 0.06455018 -0.06655172 0.053257834
0000a0 83 2a 25 3d ea cb 00 bc 13 ef 7a bd 6a ce 3d bd
       0.040323745 -0.007861117 -0.061263155 -0.04633943
0000b0 97 37 94 3d 31 bb 80 bd 72 29 5d 3c c2 df cc bb
       0.072371654 -0.06285704 0.013498651 -0.00625226
0000c0 9f 72 da bd 2d 48 8e 3d 89 4f d1 bd 94 63 c3 3d
       -0.106663935 0.0694736 -0.10220248 0.095404774
0000d0 7a cd 92 3d d7 c9 c6 bd 06 b7 26 3b 1a b0 87 3d
       0.07168098 -0.09706467 0.002543868 0.066253856
0000e0 4c 8a c2 ba 8f 8d a0 bd 21 d6 a6 3c f2 78 84 bc
       -0.0014842241 -0.078395 0.020365776 -0.016170952
0000f0 54 0a 2a 3b 93 66 15 bc 89 3e 50 3d ae 43 f1 3c
       0.0025946097 -0.009118694 0.05084089 0.029451218
000100 1a 18 91 bc d2 89 9b 3d 16 ad dd bb e1 04 9a 3d
       -0.017711688 0.075946465 -0.006765018 0.07520462
000110 54 35 de 3d 74 ad d7 3c 7f ec 1f 3d 04 0a 89 bd
       0.10850015 0.026327826 0.0390439 -0.066913635
000120 19 a7 d4 bc 97 0a cb bc 5c 98 a6 3d ee 25 0b 3c
       -0.025958585 -0.024785323 0.08134529 0.00849293
000130 80 4c 6d 3d a8 ea 95 bd 84 61 dd bc 06 5c ba 3d
       0.057934284 -0.07320148 -0.027024038 0.09099583
000140 b6 f0 82 3d ed fb 15 bd 22 17 91 3d 71 1c 74 bd
       0.06393568 -0.03661721 0.0708449 -0.059597436
000150 8b 2a 9c 3d 75 5e c3 3c c7 96 c0 3d f1 a4 94 3d
       0.07625302 0.023848752 0.094037585 0.072580226
000160 03 59 c6 3d 1e 3c d6 3b a7 f1 b9 3c 9a 80 07 3d
       0.096849464 0.0065379282 0.022698237 0.03308163
000170 70 29 a4 3d 34 8f 68 bd 6b 1c b0 3c 2c 6a bd bc
       0.08015716 -0.056777194 0.021497926 -0.023121916
000180 fd 56 b0 ba d2 da 97 3d 09 b6 0c bd 99 b6 6a bd
       -0.0013453659 0.074147835 -0.03435329 -0.057303045

net.odeblock.net.odefunc.net.4.weight f4 [14, 100]
000000 0d d1 af bd d3 dd 6a bb 7b ae 25 3d 18 0f a9 bd
       -0.08584795 -0.0035837784 0.0404496 -0.08254832
000010 aa 17 49 bd bf 8d 30 bd 90 d2 03 3d 84 f9 3f bd
       -0.049094833 -0.04310393 0.03218323 -0.046868816
000020 3a eb fe bb db 2a f1 bc bc bd 21 3d dc 6a 92 3d
       -0.007779506 -0.02943938 0.039487585 0.07149288
000030 9a 3d 90 3d d7 ae 20 3c 8f f2 cd bd 74 bd 79 bd
       0.070429996 0.00980731 -0.1005603 -0.060971692
000040 ca ef 5d ba 64 49 0f 3d 85 ff b5 3d 52 e3 6d 3d
       -0.00084662123 0.0349821 0.08886627 0.058078118
000050 2f 54 c0 3d ad 91 6c bd 8a 75 9f bd ae 53 74 39
       0.09391057 -0.057756115 -0.07786091 0.00023300826
000060 63 aa 95 bd 2c 8e 83 3c 5f 68 8d 3d a6 21 8d 3d
       -0.07307889 0.016059004 0.06904673 0.068911836
000070 89 3c df 3c 8b ed d1 bd bd 37 97 bd 42 f7 ab 3d
       0.027250545 -0.10250386 -0.07383678 0.0839677
000080 65 5d 70 3d 5c 35 98 3d 1a d4 c4 bc 26 f7 5b 3d
       0.058682818 0.074320525 -0.02402692 0.053702496
000090 12 15 e0 bd 26 85 a2 3d d3 39 70 bd 99 a0 5f bd
       -0.10941519 0.07935552 -0.058648895 -0.054596517
0000a0 3b b2 32 3d 61 48 82 3d e4 5f bb 3d fe f8 a9 bd
       0.043627005 0.063614614 0.09149149 -0.082994446
0000b0 b4 58 a1 bd c3 af 87 bd 86 97 05 3d 1e b7 88 3c
       -0.07878247 -0.06625321 0.032615207 0.01668888
0000c0 c7 dd c3 bd 9c 55 b6 bd f3 60 30 bd 9b 1d ba 3c
       -0.09563785 -0.089030474 -0.043061208 0.022719195
0000d0 e6 48 5d 3d 3e 89 b9 3c d9 5c 9c 3c e0 8c 13 bd
       0.0540246 0.02264845 0.019087242 -0.03602302
0000e0 66 c5 a5 3d cf 5a 4b 3d 86 49 b6 bc 1c d0 45 bd
       0.080942914 0.04964715 -0.022251856 -0.04829417
0000f0 e9 bb 1a bc 33 3e 9c ba b4 9b 06 bd 28 29 1e bd
       -0.009444215 -0.0011920392 -0.032863334 -0.03861347
000100 e0 9a 41 bc 4b 7e 79 3d cd 9f 89 bc 91 53 c7 bd
       -0.01181671 0.060911458 -0.016799832 -0.09732736
000110 44 1b 64 3c 11 1c b4 bc 61 da 25 bc 16 59 3d bc
       0.013922516 -0.02198604 -0.010122866 -0.011556884
000120 a4 28 a0 3d 5e b1 88 3c 70 70 9c bc 67 6c 33 bd
       0.078202516 0.016686138 -0.019096583 -0.043804552
000130 b0 fd b3 3c 8d 14 b6 3d 83 66 66 3c b3 7b 0a bd
       0.021971554 0.088906385 0.014062527 -0.033809375
000140 2b f8 b6 3c 5f 48 85 3d 1d 55 63 bd 72 c5 69 bd
       0.022335133 0.06507944 -0.055501092 -0.057073064
000150 20 7f ca bc 16 f4 03 bd 00 59 bd bc 6a 2f 89 bd
       -0.024718821 -0.0322152 -0.023113728 -0.06698497
000160 d0 56 5a 3d a5 df 2f 3d 41 8b 06 bd 6e fc 55 3c
       0.053305447 0.042937893 -0.032847647 0.013060672
000170 cb 03 42 3d 5c 31 a0 3d 0b c6 1c 3d 99 f2 74 bc
       0.0473669 0.078219146 0.038274806 -0.014950418
000180 cb 4e 0c 3d 40 e0 a8 3d d2 04 be 3d 94 78 4f 3d
       0.03425483 0.08245897 0.09278263 0.0506521
000190 63 6e d1 bd c5 dc c2 3d 88 62 80 bb c6 43 2b 3d
       -0.10226133 0.09514765 -0.003917996 0.04181268
0001a0 91 34 ab bd f6 a9 d4 bc 4c 69 cf bd aa 3f b4 3d
       -0.083596356 -0.02595995 -0.10127506 0.088012055
0001b0 b2 d3 9b 3c cf 4d 9b 3d 5b 7c 74 bd ac 6b b5 bd
       0.019021843 0.075832 -0.059688907 -0.088584274
0001c0 82 fa a1 3d b6 50 81 bd 9c c8 0e 3d 91 aa 95 3d
       0.07909109 -0.063142225 0.034859285 0.073079236
0001d0 8b be 0c bd 54 ed 92 bd a6 d8 4d bc 7a ef 70 bd
       -0.034361403 -0.07174173 -0.01256386 -0.058822133
0001e0 36 07 a4 bc 26 66 b6 bd 68 f9 b5 bb 6f ba 97 3d
       -0.02002297 -0.08906202 -0.005553413 0.07408606
0001f0 64 95 87 bc a5 24 75 bd c5 da 48 bb 42 29 20 bd
       -0.016550727 -0.0598494 -0.0030647975 -0.039101847
000200 2a a7 b3 bd 97 bc c3 bd 51 9c 94 3c 6c 01 b7 3d
       -0.087721184 -0.09557455 0.018140944 0.08935818
000210 61 df b1 bc f6 84 2e bd 65 1f 41 bd dc 02 b5 3c
       -0.02171296 -0.04260727 -0.04714908 0.02209609
000220 4d aa 94 3c 58 cc 02 3c 5c 80 a4 3d 89 33 30 bd
       0.018147612 0.00798329 0.08032295 -0.043017898
000230 b5 d8 2e 3c b0 45 a3 bd 83 91 2e bd 4e f8 16 bc
       0.010671784 -0.07972276 -0.04261924 -0.009214474
000240 d2 41 ab bc 0d e0 ab 3c 6b 54 05 bc 96 52 18 3d
       -0.020905409 0.02098086 -0.008137803 0.037188135
000250 9c 1e f1 3c b6 76 63 bd 70 ba 4f 3c ec 51 6c bb
       0.029433541 -0.055533133 0.0126787275 -0.0036059571
000260 79 bc e3 3d af 26 96 bd 6c c0 3d 3d b9 10 e5 3c
       0.11119933 -0.07331597 0.046326086 0.027962076
000270 7b 3e 7a 3d 8f 73 52 bc 3e 92 a3 3d 46 53 58 3d
       0.061094742 -0.012844934 0.07986878 0.05281379
000280 01 6e c5 bc a2 d5 5b bd df 19 95 bc 1b d3 80 3c
       -0.024100306 -0.053670533 -0.018200813 0.015725663
000290 2d 3d 6c 3c 8e e3 de 3b a5 f8 f9 3c 89 d6 d7 3c
       0.014418882 0.006802029 0.03051407 0.026347416
0002a0 40 06 61 3c 82 b5 cc 3c f8 5d c1 bd 35 d6 b3 3d
       0.0137344 0.024988893 -0.09441751 0.08781091
0002b0 a9 11 24 bd 38 ce 44 bd d3 d8 2b 3d 0b 61 85 bc
       -0.040055905 -0.048048228 0.041954827 -0.016281625
0002c0 fe 75 ad bc 65 fd 82 3d 11 21 15 3a 4d 46 d9 bc
       -0.021174427 0.063959874 0.0005688826 -0.02652278
0002d0 57 4e a0 3c 9a e3 9b 3d b2 86 46 bc c9 92 19 bd
       0.019568605 0.07611771 -0.012117075 -0.0374935
0002e0 13 0a 88 bd e3 f5 1a 3d 45 22 9d 3d 17 ee 80 3d
       -0.066425465 0.037832152 0.07672552 0.06295412
0002f0 d3 e6 a4 bd b1 0f 32 bd 0e 0d 74 bd aa 93 00 3c
       -0.08051839 -0.043471996 -0.059582762 0.007847706
000300 31 08 75 bc 70 2e 35 3d 48 83 23 3c 41 2c 58 3d
       -0.014955566 0.04423374 0.00998003 0.05277658
000310 91 05 b8 3d 4d 19 b2 bd b7 a1 cd bc 0d 77 66 bd
       0.08985437 -0.08696232 -0.025101526 -0.05626588
000320 25 e9 c9 bd 42 de 80 bc b4 51 4d bd 52 a7 b7 3d
       -0.09858922 -0.01573098 -0.050126746 0.08967461
000330 88 80 0c bd 94 64 f1 3c 3a 22 1d bd a9 93 2e 3c
       -0.034302264 0.029466905 -0.03836272 0.010655322
000340 cf 93 36 3d 5b c3 46 3b 97 21 9f 3d cb 2c 9f 3d
       0.044574555 0.0030328843 0.07770079 0.077722155
000350 d5 02 b4 3c 3b 4b 05 3d b3 67 51 bd bb a4 cf 3c
       0.021974007 0.03254245 -0.051124286 0.025347104
000360 ba fa 0f 3c 8a cc bd 3d be 7e 42 3c ef d7 99 bc
       0.008787805 0.09267528 0.011871038 -0.018779723
000370 57 f1 56 bd 65 ce 8c bc ba c3 7a 3d ee ca 81 bd
       -0.052476253 -0.01718826 0.061221816 -0.06337534
000380 c9 7b bc bd 38 cf 3b bd 11 89 a9 3b 2c fd 4f 3d
       -0.09203298 -0.045851916 0.0051738103 0.050778553
000390 5c 93 7a 3c 5c 43 63 3d a4 c1 f2 bc e4 2e 97 3b
       0.015293922 0.05548416 -0.02963335 0.004613744
0003a0 95 70 c8 3b 89 9b 00 bd 76 15 de 3c 44 a3 a9 3c
       0.0061169364 -0.03139833 0.027109843 0.020707734
0003b0 71 8b c6 3d 9f 40 17 bd 47 99 75 3a 72 6c 71 3d
       0.09694565 -0.03692686 0.00093688484 0.058941312
0003c0 e1 f1 a2 bd c9 43 b3 3d da 99 c6 bd fa 5e 3f bc
       -0.07956291 0.08753163 -0.096973136 -0.011680359
0003d0 86 4a a4 bd 11 7e 76 bd 66 35 cc bd aa 77 bf bd
       -0.08022027 -0.06017882 -0.099711224 -0.09348996
0003e0 36 c0 b6 3d e2 9f ac bd fc a9 ae 3d f8 e9 91 bd
       0.0892338 -0.08428933 0.08528516 -0.07124704
0003f0 a5 c9 c5 3d 2a 51 b9 bc 79 3d 2a 3d 9c 09 95 3d
       0.09657601 -0.02262171 0.04156253 0.072772235

net.odeblock.net.odefunc.net.4.bias f4 [14]
000000 a0 1a a0 bd 4d cc 18 3d 4f 5a 5c 3c fa 2c 78 3d
       -0.07817578 0.03730421 0.013449266 0.060589768
000010 18 01 2c 3d ac 11 41 3d bd cb a6 3d 43 64 a8 3c
       0.04199323 0.047135994 0.08144329 0.020555621
000020 3a 66 55 bd 51 f5 ba bd 12 66 f2 bb e5 6b 8d 3d
       -0.052099444 -0.09128822 -0.0073974216 0.06905345
000030 91 c1 32 3d 8f 94 c3 3d
       0.04364163 0.0954982

net.linear.weight f4 [9, 14]
000000 9d 19 d2 bd 52 33 5c 3c 29 73 aa bd fe d0 87 bc
       -0.102587916 0.01343997 -0.08322746 -0.016579147
000010 a5 9a e6 bd bb 84 c5 3d b0 9e 08 bd 8f 48 39 3e
       -0.11259965 0.09644457 -0.03335446 0.18094085
000020 7d ff 0f 3e 87 b9 fe bd 62 f2 17 3d bc 02 42 be
       0.14062305 -0.1243773 0.03709639 -0.18946356
000030 6c 9c 32 3e 0c 33 8e 3e e3 f2 25 bd 6c 35 df 3d
       0.17442483 0.2777332 -0.040514838 0.10898861
000040 b0 5a 0d 3e 60 8a 53 3d 52 17 b3 3d 3b 47 c0 bd
       0.13804126 0.051645637 0.08744682 -0.09388586
000050 55 61 e7 3d c2 5f b2 bd a2 eb 02 bd ec d6 8c 3d
       0.112978615 -0.087096706 -0.031963 0.068769306
000060 40 47 e6 3d f9 1a f8 bd 70 2a 57 be 70 9f 7d be
       0.112440586 -0.121145196 -0.21012282 -0.24767852
000070 b7 69 a2 bb 22 63 5d 3d 86 1c 17 be 07 f7 1e be
       -0.00495645 0.05404962 -0.14756975 -0.15523921
000080 08 3a bb 3d 20 f6 ae bc 1d 6d fe 3d a7 8e b7 3c
       0.09141928 -0.021357596 0.124231555 0.02240689
000090 a7 82 a4 3d 1c e6 be bd 7b c4 85 3e 0d 9c 85 3e
       0.080327325 -0.09321234 0.26126465 0.2609562
0000a0 40 8e 66 3e d1 34 34 3e 4d e3 11 3e b9 42 15 be
       0.22515202 0.17598273 0.14246865 -0.14576234
0000b0 b5 ac fd 3d 3a a5 2c bd 4e f8 d1 3d 80 e1 33 3d
       0.12386457 -0.04214976 0.102524385 0.043916225
0000c0 2d 03 0c be da 67 0f 3e af 9c 02 3e 6d 10 12 3e
       -0.13673086 0.1400446 0.12755083 0.14264078
0000d0 f1 77 41 3d 84 fc 3c be ce e1 2e 3e 62 29 85 3e
       0.047233526 -0.18455702 0.17078325 0.26008135
0000e0 4d ae 8a bd 02 18 e6 3a df d2 3c bd d4 f6 6b 3d
       -0.067715265 0.0017554762 -0.04609954 0.05760844
0000f0 ad 60 3d bd aa cf bf 3d 38 49 37 3c cf 8b bd 3d
       -0.046234775 0.09365781 0.01118689 0.09255182
000100 86 5f a7 3d 54 da ab 3d f7 38 59 3e ed 16 b3 3d
       0.081725165 0.08391252 0.21213137 0.08744607
000110 33 f0 01 3e 66 45 20 3e 9e e6 6e bd f4 f7 09 3e
       0.12689285 0.15651473 -0.058325402 0.13473493
000120 03 20 c0 bd 3b 86 69 bd 71 19 bf 3d c7 72 e5 3d
       -0.09381106 -0.057012778 0.093310244 0.11203533
000130 1f c2 db bc 4d 9f 53 bb 9b 66 b1 bc ae 4b 64 be
       -0.026825963 -0.0032290996 -0.021655371 -0.22294495
000140 1a 86 2d 3e 71 d6 28 bd 08 ee 76 be 6d f8 3b 3e
       0.16945687 -0.041220132 -0.24114239 0.18356486
000150 96 65 24 3d 0a e1 27 3a 99 05 1f 3e dd e2 9e bd
       0.040135942 0.0006404078 0.15529479 -0.077581145
000160 db e8 db bc 21 b0 96 3d 17 a5 6d bd af 7e 8a ba
       -0.026844433 0.07357813 -0.05801877 -0.0010566319
000170 3d 8d 02 be 13 46 7e be 0f a5 0d be 69 97 22 be
       -0.1274919 -0.24831419 -0.13832496 -0.15878071
000180 c6 e6 cd bb f1 8f fe bd 8b ac b5 bd 91 85 c8 bd
       -0.006283614 -0.124297984 -0.088708006 -0.09791101
000190 46 8e ea bc 66 f0 26 be 8b 63 eb bd d8 2c df 3d
       -0.028632294 -0.16302642 -0.11493596 0.10897225
0001a0 a2 6e 34 3d c6 4b 52 be 4f 74 7b 3d 7f 8f fb 3d
       0.04405082 -0.20536718 0.061390217 0.12283229
0001b0 6e 21 3f be 36 00 33 be 2c b0 e0 3d 15 a6 85 be
       -0.18665096 -0.17480549 0.10971102 -0.26103273
0001c0 93 a9 85 bb 3e 6e ef bd 51 b2 29 bb a9 5c ce 3d
       -0.0040790527 -0.11690949 -0.0025893638 0.10076267
0001d0 fa d4 e5 bd e0 5b a0 3d fb b9 0e be 58 94 03 3e
       -0.11222263 0.07830024 -0.13938133 0.12849557
0001e0 0c 21 14 3e 6f 88 8d bd c9 27 64 be b7 b1 0d be
       0.14465731 -0.06910788 -0.22280802 -0.13837324
0001f0 6e 31 22 be 7e d7 84 3e
       -0.15839168 0.25945657

net.linear.bias f4 [9]
000000 a2 b1 d0 b8 4f 13 03 bc cc b3 b6 b8 40 81 a8 bc
       -9.9512996e-05 -0.008000209 -8.711926e-05 -0.020569444
000010 51 0d 8b bb d9 b4 9a bd cf 7f cf bd 20 de e7 3d
       -0.004243531 -0.07554025 -0.101317994 0.11321664
000020 8f bd 6b bd
       -0.057553824
