mlp_ode_split.pt (torch, 56375 bytes, 8 tensors)

net.odeblock.net.odefunc.net.0.weight f4 [100, 15]
0	0xbdfdfd4d	-0.12401829
1	0x3e00d584	0.1258145
2	0xbe14cadd	-0.14530511
3	0x3e42e485	0.19032486
4	0xbde47ea6	-0.11156969
5	0xbe459e4a	-0.19298664
6	0xbce0b4f5	-0.027430037
7	0xbe3e793c	-0.18600935
8	0xbd99ddca	-0.07513006
9	0x3e5ec864	0.2175613
10	0x3d8da355	0.06915919
11	0xbdf405c1	-0.1191516
12	0xbd60d5e0	-0.054891467
13	0x3e773404	0.24140936
14	0xbe55ca8f	-0.20878051
15	0x3de4d5eb	0.11173614
16	0xbe4c9b92	-0.1998122
17	0x3c4374e5	0.011929725
18	0xbe3d502a	-0.18487611
19	0x3e2fe1a3	0.17175917
20	0xbe14a5ee	-0.14516422
21	0x3d905b25	0.070486344
22	0xbc2423dc	-0.010018315
23	0xbd77af0e	-0.06046968
24	0x3e722968	0.23648608
25	0x3dcb4c7a	0.09926696
26	0x3dcdf9db	0.10057422
27	0xbddda79e	-0.10822986
28	0x3dff663d	0.12470672
29	0x3e0757eb	0.13217132
30	0xbe65aac5	-0.22428425
31	0x3e046e69	0.12932743
32	0x3e55115e	0.20807406
33	0xbd894adc	-0.067037314
34	0x3e044d2d	0.12920065
35	0x3e6a5f21	0.22887851
36	0xbe765a74	-0.24057943
37	0x3e6c6c30	0.23088145
38	0xbdcbaeda	-0.0994546
39	0x3de5bc68	0.11217576
40	0xbddf72ec	-0.109105915
41	0x3e8f562d	0.27995434
42	0xbd8f3939	-0.06993336
43	0x3e55aedc	0.20867485
44	0xbd43561b	-0.04768954
45	0xbe0d69bb	-0.13809864
46	0xbc94a78b	-0.018146297
47	0xbe63f3d8	-0.22260988
48	0x3e3fd662	0.18734124
49	0xbe593185	-0.21210296
50	0x3defc4b2	0.117074385
51	0x3e2728e1	0.16324188
52	0x3de9a85b	0.114090644
53	0x3da0540c	0.07828531
54	0xbd94bb61	-0.07262302
55	0x3d82c332	0.06384887
56	0xbc32380e	-0.010877622
57	0xbc6df1c0	-0.01452297
58	0xbe39faa5	-0.1816202
59	0xbbdf7f5c	-0.0068206023
60	0xbcedc655	-0.029025236
61	0x3cf7a294	0.03022889
62	0xbd3b7264	-0.04576339
63	0xbe6e5be9	-0.23277248
64	0x3e64ebdd	0.223556
65	0x3e0194f5	0.12654479
66	0x3e23550a	0.15950409
67	0x3dfd6d7d	0.12374399
68	0x3e1a064d	0.15041466
69	0x3d9c75a2	0.07639624
70	0x3ea9fec1	0.33202174
71	0xbe622d45	-0.22087581
72	0xbe917f96	-0.28417653
73	0xbd78bb11	-0.060725275
74	0xbde17c8f	-0.11010086
75	0x3e1a953a	0.15095988
76	0x3e038351	0.12843062
77	0x3d6e8d50	0.058240235
78	0x3e5403a7	0.20704518
79	0x3dcd491a	0.10023709
80	0xbd9b73fc	-0.07590482
81	0xbde522d9	-0.11188287
82	0x3e3d9f60	0.18517828
83	0x3e03250a	0.12807098
84	0x3cd1e284	0.025620706
85	0xbcbfe9fd	-0.023427004
86	0x3e62a5a3	0.22133498
87	0xbe70bdfc	-0.23509973
88	0xbe3291a4	-0.1743837
89	0x3daaa296	0.08331792
90	0xbc662491	-0.014046804
91	0xbe7c8d6b	-0.24663322
92	0xbe069513	-0.13142805
93	0xbc388c78	-0.011263959
94	0xbe399dd8	-0.18126619
95	0x3e146a67	0.14493714
96	0xbe20d515	-0.15706284
97	0x3e014abb	0.12626164
98	0x3e07cc5b	0.13261549
99	0xbe7d3eb6	-0.24730954
100	0x3e5c6e5d	0.21526475
101	0xbe66b9a0	-0.22531748
102	0x3e0fca62	0.14042047
103	0x3e819bb5	0.25314108
104	0x3e16a0ce	0.1470978
105	0x3e40ce68	0.18828738
106	0xbe62be48	-0.22142899
107	0x3a88ef27	0.001044725
108	0xbe35d940	-0.17758656
109	0xbe72f2e8	-0.23725474
110	0xbdd0f1a0	-0.10202336
111	0x3e6b0459	0.22950877
112	0x3e0d7af5	0.13816436
113	0x3e17a6c7	0.14809714
114	0xbe19b8e4	-0.15011936
115	0x3d103300	0.035204887
116	0xbe3e0049	-0.18554796
117	0x3d683f78	0.056701154
118	0xbe052d83	-0.13005643
119	0x3e8f3c71	0.279758
120	0xbd8c7482	-0.068581596
121	0x3dde62c1	0.108586796
122	0x3e4bdb8d	0.1990797
123	0x3e24e63d	0.16103454
124	0x3df036ed	0.11729226
125	0xbdc2a7c0	-0.09504652
126	0xbd147e36	-0.036253177
127	0xbd80945c	-0.06278297
128	0xbe74fe72	-0.23925188
129	0x3e00cf9f	0.12579201
130	0xbe0f677a	-0.14004317
131	0xbe935937	-0.28779003
132	0x3dea4260	0.11438441
133	0x3ddcef5a	0.1078784
134	0xbcd66d87	-0.026175274
135	0x3ddc1a22	0.10747172
136	0x3d062564	0.032750502
137	0x3d8acbab	0.06777128
138	0xbe209540	-0.15681934
139	0xbd26623f	-0.04062104
140	0xbe264c9f	-0.16240166
141	0x3e524d26	0.20537242
142	0x3dbe5369	0.09293253
143	0x3e73af31	0.23797299
144	0x3d234725	0.03986277
145	0xbd72a695	-0.059240896
146	0x3e552759	0.20815791
147	0xbd91cc98	-0.07119101
148	0xbe5c1162	-0.21491006
149	0x3e99fbc9	0.3007491
150	0xbe645b1e	-0.22300383
151	0x3d91f7b4	0.07127324
152	0xbe77948b	-0.24177758
153	0xbe234ec2	-0.15948012
154	0xbe95e398	-0.29275203
155	0xbe61df95	-0.22057946
156	0xbd9118a6	-0.070847794
157	0x3dde425c	0.10852501
158	0xbe7d1e67	-0.24718629
159	0xbe6dfed0	-0.23241735
160	0x3da4b11c	0.080415934
161	0x3e11c388	0.14234746
162	0x3e6e5857	0.23275886
163	0x3e9fa7a2	0.3118258
164	0xbe2e3844	-0.17013651
165	0x3e0b2b33	0.13590698
166	0xbdf41fac	-0.119201034
167	0xbe4d456e	-0.20046017
168	0x3d1dfd55	0.038571674
169	0xbc97d2f8	-0.018533215
170	0xbdf406d4	-0.11915365
171	0xbe6c3e96	-0.2307075
172	0xbd84f367	-0.06491738
173	0xbda237ff	-0.07920837
174	0xbe1d30f0	-0.153507
175	0x3da3c4f3	0.079965495
176	0xbe81ac49	-0.25326756
177	0xbd8ccdd9	-0.068752
178	0x3d960729	0.073255844
179	0x3e39d4da	0.18147603
180	0x3e24360c	0.16036242
181	0xbd4464f7	-0.04794785
182	0xbe317e0b	-0.17333238
183	0xbe1f8695	-0.15578683
184	0xbe574c77	-0.21025263
185	0xbe056fc5	-0.13030918
186	0x3dbaadc6	0.09115176
187	0xbd50f82a	-0.051017918
188	0xbd304875	-0.04303785
189	0x3cf11b9b	0.029432109
190	0xbe2a2807	-0.16616832
191	0xbe10656d	-0.14101191
192	0x3dc13f60	0.09435916
193	0x3e2c53ec	0.16828889
194	0xbdd7285a	-0.10505743
195	0x3cd5cbf1	0.026098223
196	0x3e1e9139	0.15485086
197	0x3c908f5a	0.01764648
198	0x3e78ca89	0.24296011
199	0x3deb2eaf	0.114835136
200	0x3df0da9a	0.11760445
201	0xbdd7296d	-0.10505948
202	0xbdb86492	-0.09003557
203	0x3db7280c	0.08943185
204	0xbcd625df	-0.026141105
205	0x3e3b8b9d	0.18314977
206	0x3df907e3	0.121597074
207	0x3d060b67	0.032725718
208	0x3dabb28a	0.08383663
209	0xbd89fa02	-0.06737138
210	0xbe59b241	-0.21259405
211	0x3e2570af	0.16156267
212	0x3e0ff7ba	0.14059344
213	0x3e6796f5	0.2261618
214	0xbe7354c2	-0.23762801
215	0xbde09481	-0.10965825
216	0x3d918825	0.07106046
217	0xbe38a7d8	-0.18032777
218	0x3da0ff2e	0.07861172
219	0xbdebd5d2	-0.11515392
220	0xbe4d274b	-0.2003452
221	0x3e15d84a	0.14633289
222	0x3dccaf80	0.099944115
223	0xbc796002	-0.015220644
224	0xbd25df8c	-0.040496394
225	0x3ac83f7f	0.0015277712
226	0x3e6ba33b	0.23011486
227	0x3d1e6eca	0.038679875
228	0x3e7eb1b9	0.24872483
229	0xbe6762cc	-0.22596282
230	0xbe326e1d	-0.17424817
231	0xbcd924e3	-0.026506847
232	0x3e47f14c	0.19525641
233	0x3d8d31ce	0.06894265
234	0x3c89b1f7	0.016808493
235	0xbb94661d	-0.0045287744
236	0x3d8844f3	0.06653776
237	0x3e406a50	0.18790555
238	0x3d982278	0.074284494
239	0x3d7163ca	0.058933057
240	0xbe349376	-0.17634377
241	0xbd542797	-0.05179557
242	0xbdd3cb7e	-0.103415474
243	0xbdc833d6	-0.09775512
244	0x3e8490ec	0.25891817
245	0xbdcb2144	-0.09918454
246	0xbd80e1f0	-0.06293094
247	0x3e1815c6	0.14852056
248	0xbe7cb7ba	-0.24679461
249	0xbe65ed92	-0.22453907
250	0xbda3fe86	-0.08007531
251	0xbe0d54b2	-0.1380184
252	0x3d1fd100	0.039017677
253	0x3e0be735	0.13662417
254	0xbe5689bc	-0.20950979
255	0xbd287a5f	-0.041132327

net.odeblock.net.odefunc.net.0.bias f4 [100]
0	0xbe26cb29	-0.16288437
1	0xbe168e89	-0.1470281
2	0x3e2ee13a	0.17078105
3	0x3dfefd5a	0.12450667
4	0x3e35d4c9	0.17756952
5	0x3c9b544f	0.0189611
6	0x3d607c4f	0.05480605
7	0x3da41f16	0.08013742
8	0xbdd4def0	-0.103940845
9	0xbdd31c7c	-0.10308167
10	0xbe631a93	-0.22178106
11	0x3d8ef69e	0.06980632
12	0x3e3d4424	0.18483025
13	0x3e198966	0.1499382
14	0x3e570533	0.20998077
15	0xbe32e3a4	-0.1746965
16	0x3dd701ee	0.10498415
17	0xbcf27548	-0.02959694
18	0x3e1cc8e4	0.15311009
19	0xbdca46a9	-0.098767586
20	0xbde27c6f	-0.1105889
21	0x3d71019f	0.058839437
22	0x3e115b6a	0.14195028
23	0xbe1e5899	-0.15463485
24	0x3d240fa7	0.04005399
25	0x3e3bbaf0	0.1833303
26	0x3e466edc	0.19378227
27	0x3e08fb51	0.1337712
28	0x3c94fa0e	0.018185642
29	0xbe18289a	-0.14859238
30	0x3e5dccce	0.21660158
31	0xbdb6f24f	-0.089329354
32	0x3e65b753	0.22433214
33	0xbd35529a	-0.044268228
34	0xbe723228	-0.23651946
35	0xbd18b400	-0.037281036
36	0xbd8131ff	-0.06308364
37	0x3dcd39f3	0.100208186
38	0x3e51031c	0.20411342
39	0xbd6f9b58	-0.058497757
40	0x3cd5a575	0.026079873
41	0xbdf27379	-0.11838431
42	0x3dbf1ef4	0.09332076
43	0xbe5c039b	-0.2148575
44	0x3e29a9fa	0.16568747
45	0xbe26d524	-0.16292244
46	0xbddb43b6	-0.10706274
47	0x3e52ac03	0.2057343
48	0xbd694232	-0.056947894
49	0x3defec88	0.11715037
50	0x3d027471	0.03184933
51	0xbe3c3687	-0.18380176
52	0xbb96910e	-0.0045949286
53	0x3e2fc70a	0.17165771
54	0xbc00b1c5	-0.007854884
55	0xbe4702b6	-0.19434628
56	0x3dd826dd	0.105542876
57	0x3d05b110	0.032639563
58	0x3e47d6ca	0.1951553
59	0xbdddd37d	-0.10831354
60	0xbd2f6ec1	-0.042830233
61	0x3dd12b59	0.10213346
62	0xbe0d783e	-0.138154
63	0x3c7f4dfc	0.015582558
64	0xbe1532b6	-0.14570126
65	0xbdc0f65f	-0.094219916
66	0xbe2c3f49	-0.16821016
67	0xbca4daaa	-0.020123798
68	0x3e472901	0.19449235
69	0x3d4fe81c	0.050758466
70	0xbe4ba6c5	-0.19887836
71	0xbe096998	-0.13419187
72	0x3cad05e1	0.021120967
73	0x3da3feed	0.080076076
74	0x3e12e85e	0.14346454
75	0xbe39c761	-0.18142463
76	0x3e271d73	0.16319828
77	0xbc0faacd	-0.008768749
78	0x3e3631ad	0.17792387
79	0xbd3450fa	-0.044022538
80	0xba889c3c	-0.0010422538
81	0xbe4b014b	-0.19824712
82	0x3da834b8	0.0821318
83	0x3c6a5836	0.014303258
84	0x3dd9db1d	0.10637496
85	0x3cfbc32a	0.03073271
86	0xbe4f72e4	-0.20258671
87	0xbd573c6d	-0.05254786
88	0x3df5bee8	0.11999303
89	0xbe6d78c1	-0.23190595
90	0x3bcf541f	0.0063271667
91	0xbe152eaf	-0.1456859
92	0xbd47efb2	-0.048812576
93	0x3ce0e0c7	0.027450932
94	0x3df0c44b	0.1175619
95	0xbe197bef	-0.14988683
96	0x3d51cfff	0.05122375
97	0xbd9b83e7	-0.07593518
98	0xbe195ea2	-0.14977506
99	0xbcda0174	-0.026612021

net.odeblock.net.odefunc.net.2.weight f4 [100, 100]
0	0x3c8b6423	0.017015522
1	0x3c94b57f	0.01815295
2	0xbcb4fbf6	-0.0220928
3	0x3ca20bf5	0.019781092
4	0x3cc0a294	0.023515023
5	0x3d3e4831	0.046455566
6	0x3c96ba83	0.018399483
7	0xbcf2d26e	-0.029641356
8	0xbce1446f	-0.027498452
9	0x3b63b35c	0.0034744358
10	0x3cc39fa3	0.023879832
11	0x3c645a4b	0.013937543
12	0x3d91fb54	0.07128015
13	0x3b956a15	0.004559765
14	0x3ce9db8f	0.028547077
15	0x3d01aa78	0.031656712
16	0xb8d3b6e9	-0.00010095334
17	0xbd27b1c8	-0.04094103
18	0x3cbfb6b0	0.023402542
19	0x3d52ec42	0.051494844
20	0x3c1bea17	0.009516261
21	0x3db31c24	0.08745602
22	0x3cb7487b	0.022373429
23	0x3cd9e261	0.026597204
24	0x3d903188	0.07040697
25	0xbba3732b	-0.0049880943
26	0xbc887a3f	-0.016659854
27	0x3aa96a76	0.0012925405
28	0x3d96024c	0.07324657
29	0x3dd97bb2	0.10619296
30	0xbd683eff	-0.056700703
31	0x3d0602d6	0.03271755
32	0xbd966f85	-0.073454894
33	0x3d1b0bce	0.037853055
34	0x3a23b752	0.00062452734
35	0xbdc183c4	-0.094489604
36	0xbda43453	-0.080177926
37	0x3d9ff194	0.07809749
38	0x3d33cd53	0.043896984
39	0xbc311f34	-0.010810662
40	0x3d21c49c	0.039494142
41	0x3d3bb885	0.04583027
42	0xbce5332f	-0.027978508
43	0x3c4c9c85	0.012488489
44	0x3d4fa79f	0.050696965
45	0x3db05154	0.08609262
46	0xbd099d30	-0.03359717
47	0xbcf51fee	-0.029922452
48	0x3cfac095	0.030609408
49	0xbdb33a87	-0.087513976
50	0xbcdafc41	-0.026731612
51	0xbd59a080	-0.05313158
52	0xbd95b2d2	-0.07309498
53	0xbdc5c78f	-0.096572034
54	0x3bd0fda5	0.006377893
55	0xbd5008af	-0.05078953
56	0x3da18b04	0.07887843
57	0xbd14cf1a	-0.03633032
58	0x3d770125	0.060303826
59	0x3bbe5de7	0.005809534
60	0xbd41c8c4	-0.047310606
61	0xbd6961d1	-0.05697805
62	0x3d2290cd	0.039688874
63	0x3d3823a8	0.04495588
64	0x3d4820a1	0.048859242
65	0x3e01ecdb	0.1268801
66	0xbd927208	-0.07150656
67	0x3c7804d9	0.0151378745
68	0xbd146bc9	-0.036235604
69	0xbd7199f2	-0.058984704
70	0x3d2a2d92	0.041547365
71	0x3c9eb495	0.019373218
72	0x3ce7a62a	0.028277475
73	0xbd61a7a4	-0.055091515
74	0xbd44fa82	-0.048090465
75	0xbdaca1bb	-0.08429285
76	0xbd982e61	-0.07430721
77	0xbb9638d7	-0.0045844126
78	0xbdbd7655	-0.09251086
79	0x3d804532	0.06263198
80	0xbd2f6a9b	-0.042826276
81	0xbd432f31	-0.047652427
82	0x3d8e840c	0.0695878
83	0x3dcd1b1e	0.10014938
84	0x3d5d8c99	0.054089162
85	0x3d0e2678	0.034704655
86	0xbd825170	-0.06363189
87	0xbc3d3a33	-0.01154952
88	0x3d91eec5	0.0712562
89	0xbd3d0b56	-0.04615339
90	0x3d33b8c3	0.043877374
91	0xbdac412e	-0.084108695
92	0xbdbc57e1	-0.09196449
93	0x3dc9f0bd	0.0986037
94	0xbd97f516	-0.07419793
95	0x3b54bce6	0.0032461225
96	0x3d6ff4a0	0.058582902
97	0xbd5241c9	-0.05133227
98	0x3d9cafda	0.076507285
99	0x3da05bdd	0.078300215
100	0xbc9d4d80	-0.019201994
101	0xbd0b8847	-0.03406551
102	0xbd359331	-0.044329826
103	0x3c13a4e2	0.009011479
104	0x3d085166	0.033280753
105	0x3d1c0089	0.038086448
106	0xbd16e18a	-0.036836185
107	0xbc96410c	-0.018341564
108	0x3dce6a57	0.100788765
109	0xbced5854	-0.028972782
110	0xbc957fae	-0.018249359
111	0xbd4ef27f	-0.05052423
112	0xbbc9a0c4	-0.006153198
113	0x3d82e35e	0.06391023
114	0xbcd9e25c	-0.026597194
115	0xbd890359	-0.06690092
116	0xbdc562a0	-0.09637952
117	0x3d2b05dd	0.04175364
118	0x3d7ce012	0.061737128
119	0x3ccac99c	0.024754338
120	0xbce26e1a	-0.027640391
121	0xbc9e6fa2	-0.01934034
122	0x3d9c2a5b	0.07625266
123	0xbd6f4c47	-0.058422353
124	0xbd389496	-0.045063578
125	0xbd167b8a	-0.03673891
126	0x3dd88cbb	0.10573717
127	0xbde54530	-0.11194837
128	0xbd811a35	-0.06303827
129	0x3da74803	0.08168032
130	0xbc6fa240	-0.014626086
131	0x3d85fb61	0.06542087
132	0xbd01e7c5	-0.031715173
133	0x3cb1ddb6	0.021712165
134	0xbdaed61b	-0.08536931
135	0x3dbd6f34	0.09249726
136	0x3c7e1c2c	0.015509646
137	0xbce5624d	-0.028000975
138	0x3c656a55	0.014002402
139	0xbca21aed	-0.01978823
140	0x3d804a50	0.06264174
141	0xbd92015a	-0.07129164
142	0x3dac4c51	0.08412994
143	0x3d3f4dad	0.046704937
144	0x3d676833	0.056495856
145	0x3d994322	0.07483508
146	0x3c39ea55	0.011347373
147	0x3d12bb9a	0.035823442
148	0xbd051e54	-0.032499626
149	0xbdb1711f	-0.08664154
150	0x3cbd4fdc	0.023109369
151	0x3c3587b8	0.011079721
152	0xbd3809da	-0.04493127
153	0x3daf41e9	0.08557493
154	0xbd826c8b	-0.06368359
155	0xbdcc702d	-0.09982333
156	0x3d086b37	0.033305373
157	0x3d739ad4	0.059473827
158	0x3d5f60f0	0.054535806
159	0xbd76fca3	-0.060299527
160	0xba5c3b86	-0.00084012037
161	0x3dc38660	0.09547114
162	0x3d973547	0.07383209
163	0xbd3c56e2	-0.045981295
164	0x3d589299	0.05287418
165	0xbd446cd0	-0.047955334
166	0x3d5e7a2e	0.05431574
167	0xbd879665	-0.06620482
168	0x3c7866da	0.0151612405
169	0xbda4f136	-0.0805382
170	0x3d6a04a6	0.05713334
171	0xbd0f0f07	-0.03492644
172	0xbca18a52	-0.019719277
173	0xbdce6a60	-0.10078883
174	0x3c76a3b8	0.015053682
175	0xbd851c46	-0.06499533
176	0x3d2ac405	0.041690845
177	0xbd6722eb	-0.056429785
178	0x3ca0c1b0	0.019623607
179	0x3d07fba6	0.033198975
180	0xbcecf084	-0.02892328
181	0xbbfa2385	-0.007633629
182	0xbd64dbfd	-0.05587386
183	0x3dcfaf11	0.10140813
184	0xbd738a3a	-0.059457995
185	0xbe0047c7	-0.12527381
186	0xbd3496da	-0.044089176
187	0x3b7b028e	0.0038301083
188	0xbc0517a2	-0.00812331
189	0x3d8894fd	0.06669042
190	0xbd41a01f	-0.047271844
191	0xbd5d4482	-0.054020412
192	0x3d81d05f	0.06338572
193	0xbd8886f0	-0.06666362
194	0xbdb8da57	-0.0902602
195	0xbd39e28e	-0.045382075
196	0xbbd00347	-0.006348047
197	0x3d478f0c	0.048720405
198	0x3d0a6527	0.033787873
199	0x3d1efb71	0.038814012
200	0xbbcd4f07	-0.0062655243
201	0xbba6d896	-0.005091737
202	0x3bd660fa	0.006542322
203	0x3cd9f959	0.026608156
204	0x3b423d47	0.0029638575
205	0xbd993fd0	-0.074828744
206	0xbca7376c	-0.02041217
207	0x3d98f8fa	0.074693635
208	0xbd80642c	-0.06269106
209	0x3e02616f	0.1273248
210	0xbc86727c	-0.016412012
211	0x3da93016	0.08261125
212	0xbd95bf4f	-0.0731188
213	0x3c938673	0.018008446
214	0x3d2dedef	0.04246324
215	0xbd860435	-0.06543771
216	0xbdeefd3f	-0.116693966
217	0xbd947c29	-0.07250244
218	0x3db982c4	0.09058145
219	0xbd327c43	-0.043575536
220	0xbd7c2f98	-0.061568826
221	0x3cc1840e	0.023622539
222	0xbdb66f18	-0.08907908
223	0xbd1cd7c2	-0.0382917
224	0x3d72faed	0.059321333
225	0xbd8b5ca3	-0.068047784
226	0x3db71aa1	0.08940626
227	0x3e0cc7ee	0.13748142
228	0xbdca7976	-0.09886448
229	0x3c2f806c	0.0107117705
230	0xbcb3c0a6	-0.021942448
231	0xbc0b8aa2	-0.008516939
232	0x3d218906	0.039437316
233	0xbda0a541	-0.0784402
234	0x3d566b48	0.052348405
235	0xbdc9f52d	-0.09861217
236	0x3df4bc1e	0.11949943
237	0x3cf0e6d8	0.02940695
238	0xbcc6c4b0	-0.02426371
239	0x3df48e57	0.11941212
240	0x3d85c679	0.06531996
241	0x3d7df1b4	0.061998084
242	0x3d8670c2	0.065644756
243	0x3da2f2cc	0.07956466
244	0xbc8f27cb	-0.01747503
245	0xbd2a80ab	-0.041626614
246	0xbc40e9d2	-0.011774497
247	0xbda635c5	-0.081157245
248	0xbd43a4da	-0.047764637
249	0x3d413b1f	0.047175523
250	0x3e0f1307	0.13972102
251	0xbd994bda	-0.07485171
252	0xbc5e58c7	-0.013570971
253	0xbcd0fae8	-0.025510266
254	0x3d5d716c	0.054063246
255	0x3dcc4c4d	0.09975491

net.odeblock.net.odefunc.net.2.bias f4 [100]
0	0x3d6af586	0.057363056
1	0x3d36a175	0.04458757
2	0x3d7f2592	0.06229169
3	0x3b59bf56	0.0033225617
4	0xbd5510b9	-0.0520179
5	0xbd0046af	-0.03131741
6	0x3c64e481	0.013970495
7	0xbdadde15	-0.084896244
8	0xbd0e835a	-0.034793235
9	0xbd7c788a	-0.061638393
10	0x3c9b1452	0.018930588
11	0xbd4400e9	-0.04785243
12	0x3daf45b6	0.08558218
13	0x3d490f01	0.049086574
14	0x3cc483fc	0.023988716
15	0x3d749d1d	0.059720147
16	0x3d6214df	0.055195685
17	0x3bb26ec2	0.0054453323
18	0xbd9fa0bc	-0.077943295
19	0x3d6ef256	0.05833658
20	0xbcd98616	-0.026553195
21	0xbd16a84b	-0.03678159
22	0xbca02a37	-0.01955138
23	0xbd29cc34	-0.04145451
24	0xbd213d87	-0.039365318
25	0xbd9db13d	-0.07699821
26	0xbd983add	-0.07433102
27	0x3d096408	0.033542663
28	0xbd1c5951	-0.038171116
29	0x3d7d0078	0.061768025
30	0x3db071ad	0.08615432
31	0xbcb6cdd2	-0.02231494
32	0xbca23943	-0.019802695
33	0x3dbb2dd3	0.091396
34	0xbc025dc3	-0.007956925
35	0x3a45b7e2	0.0007542354
36	0x3d48a953	0.048989605
37	0xbc6b05a0	-0.014344603
38	0xbd69c63b	-0.057073813
39	0x3d0da016	0.034576498
40	0x3d9ce854	0.076615006
41	0xbc838714	-0.016055621
42	0x3a60aef5	0.00085709925
43	0xbc98e146	-0.018662106
44	0xbcd404ab	-0.025881132
45	0xbd9bce9d	-0.07607768
46	0x3d2ad153	0.041703533
47	0xbd4a42a4	-0.04937996
48	0x3c326753	0.010888892
49	0xbdc6e0de	-0.09710859
50	0x3d835f17	0.06414621
51	0x3ad789d1	0.0016444271
52	0x3d4eb3e0	0.05046451
53	0x3d9bb9e3	0.076038145
54	0xbc120310	-0.008911863
55	0x3c0faaf8	0.0087687895
56	0x3d8f3fb4	0.06994572
57	0xbd005d98	-0.031339258
58	0x3d7fe292	0.062471934
59	0x3dac6c30	0.08419073
60	0xbcb133e0	-0.021631181
61	0xbda74680	-0.08167744
62	0x3b8629de	0.0040943464
63	0xbd4eeee7	-0.050520804
64	0xbd23b446	-0.039966844
65	0x3d0a2dd5	0.033735115
66	0x3d0ebf0c	0.034850165
67	0x3d7b009b	0.061279874
68	0x3bec7a11	0.0072167
69	0xbd9b9926	-0.0759757
70	0xbd735390	-0.059405863
71	0xbd4921b9	-0.049104426
72	0xbc84730a	-0.016168136
73	0x3d1bb6c1	0.038016085
74	0xbd1de252	-0.038545914
75	0x3da17fb4	0.078856856
76	0xbd35594b	-0.04427461
77	0xbc814844	-0.01578153
78	0x3caf38ef	0.021389453
79	0xbcec2c40	-0.028829694
80	0x3ce2f29b	0.027703574
81	0x3db3aab6	0.08772795
82	0xbc8abe9a	-0.016936589
83	0x3d909a70	0.070607066
84	0x3da3a024	0.07989529
85	0xbd85f368	-0.06540567
86	0xbd0b15f0	-0.033956468
87	0xbd938435	-0.07202951
88	0xbc128102	-0.008941891
89	0xbdd76778	-0.10517782
90	0x3d792c46	0.060833238
91	0x3d1e55b5	0.038655955
92	0xbc5203be	-0.012818275
93	0x3d993e04	0.07482532
94	0x3d5c5777	0.05379435
95	0xbdadae36	-0.08480494
96	0xbc89c45e	-0.016817268
97	0x3d76ece0	0.060284495
98	0x3d40f870	0.04711193
99	0x3c49ee26	0.012324845

net.odeblock.net.odefunc.net.4.weight f4 [14, 100]
0	0x3d6a6260	0.057222724
1	0x3d962fbd	0.07333324
2	0xbc912e17	-0.017722173
3	0x3c834cd5	0.016027847
4	0xbce3dec3	-0.027816182
5	0x3b311a78	0.0027023833
6	0x3c882c76	0.016622763
7	0x3c44042d	0.011963886
8	0xbd207b82	-0.039180286
9	0x3d4e9be1	0.050441626
10	0x3da58cf7	0.080835275
11	0xbc444810	-0.011980072
12	0x3c67539c	0.014119055
13	0x3d2a4218	0.04156694
14	0xbd44885a	-0.047981597
15	0xbd8c3783	-0.068465255
16	0xbd707ab9	-0.058710787
17	0xbc042831	-0.008066223
18	0xbda94f42	-0.0826707
19	0x3daa8f9b	0.08328172
20	0xbd889f7f	-0.066710465
21	0xbd5896ad	-0.05287807
22	0xbd029645	-0.03188159
23	0x3da30ee6	0.07961826
24	0xbce7fe28	-0.028319433
25	0xbc63bb6f	-0.013899668
26	0xbdadc7c2	-0.084853664
27	0x3dac7e64	0.084225446
28	0x3d36645e	0.04452931
29	0xbd3543f2	-0.04425425
30	0x3d4aaf04	0.049483314
31	0xbd8aa189	-0.06769092
32	0x3c5d7818	0.013517402
33	0x3d043766	0.032279395
34	0xbc7d1e9c	-0.015449192
35	0xbd904125	-0.07043675
36	0x3c8a5de9	0.016890483
37	0xbd918690	-0.07105744
38	0x3ca836db	0.02053397
39	0xbd206d98	-0.039167017
40	0x3d7d1a22	0.0617925
41	0xbc88f839	-0.016719924
42	0xbd1fb546	-0.038991235
43	0xbd0ae755	-0.03391202
44	0x3cac6457	0.02104394
45	0x3c270353	0.010193664
46	0x3d533758	0.05156645
47	0xbd9ce8d5	-0.07661597
48	0xbd494141	-0.049134497
49	0xbd5abfaa	-0.05340544
50	0xbc41c97d	-0.011827824
51	0x3d41cbde	0.047313564
52	0xbd26a99a	-0.04068909
53	0xbd20b354	-0.03923352
54	0xbd32715a	-0.04356513
55	0x3c32f181	0.010921837
56	0xbda535d3	-0.08066907
57	0xba303d09	-0.0006722962
58	0x3bdcfdad	0.0067441077
59	0xbd138415	-0.036014635
60	0x3e3bee61	0.18352653
61	0x3d031f7c	0.032012448
62	0xbd29c062	-0.041443236
63	0xbc5a3bbd	-0.013319907
64	0x3d22ace4	0.039715663
65	0xbd0bc868	-0.03412667
66	0x3d39d787	0.04537156
67	0x3b47d7fe	0.0030493732
68	0xbcb10408	-0.021608368
69	0x3c1afcbd	0.009459672
70	0x3de5d7e3	0.11222818
71	0xbd1f9e1c	-0.038969144
72	0x3dc6c400	0.09705353
73	0xbd34e784	-0.044166103
74	0x3caa3fc7	0.020782365
75	0xbcf179d4	-0.029477037
76	0x3d2a8ba9	0.041637097
77	0xbd90b75d	-0.07066224
78	0xbb39ab6f	-0.0028330942
79	0xbc510131	-0.012756632
80	0xbd3d6365	-0.046237368
81	0x3d1c655b	0.038182598
82	0xbd8a2b43	-0.06746533
83	0xbd6adf97	-0.05734214
84	0x3ca6ed9c	0.020376973
85	0x3d519868	0.051170737
86	0x3b8f5738	0.004374411
87	0xbbe2574e	-0.00690738
88	0x3d7cc013	0.061706614
89	0xbdd5f3c2	-0.10446884
90	0xbd6558a9	-0.055992756
91	0x3d585d55	0.052823383
92	0xbd33fd35	-0.04394265
93	0x3c3efb64	0.011656616
94	0x3c9c3c85	0.019071827
95	0xbd01f884	-0.031731144
96	0x3d1c3ea5	0.03814568
97	0x3dbdb2ac	0.092625946
98	0xbda726e4	-0.08161715
99	0x3c9ee6d7	0.019397182
100	0xbd13b3d3	-0.036060166
101	0xbd843517	-0.064554386
102	0x3d9b15ee	0.07572542
103	0xbdb2317f	-0.08700847
104	0xbc6661de	-0.014061419
105	0x3d3e1f6b	0.04641668
106	0xbd2c81aa	-0.042115845
107	0x3d65eeb9	0.056135867
108	0xbd34db81	-0.044154648
109	0xbc49d1e6	-0.01231811
110	0xbd2b2b72	-0.04178948
111	0xbd4068f6	-0.0469751
112	0x3d818605	0.0632439
113	0x3c46ecfc	0.012141462
114	0xbdb70e47	-0.0893827
115	0xbd042301	-0.032259945
116	0xbcb42e95	-0.021994868
117	0xbda73f56	-0.08166377
118	0x3d012b0e	0.0315352
119	0xbcd4ae54	-0.025962032
120	0x3d046186	0.032319568
121	0xbcd0e60f	-0.025500325
122	0xbc1cf9f4	-0.009581078
123	0xbd623fa2	-0.055236466
124	0x3d13bdf2	0.036069818
125	0xbca7c5b9	-0.020480024
126	0x3d5d2dd7	0.053998794
127	0x3d733b92	0.059382983
128	0x3bc34f05	0.0059603476
129	0x3caf6174	0.021408774
130	0xbc8037aa	-0.015651543
131	0x3cc95c7c	0.024580233
132	0x3cc882f5	0.024476508
133	0xbd3aab1a	-0.04557333
134	0xbd0598ca	-0.032616414
135	0x3cfce244	0.03086961
136	0xbd568926	-0.05237689
137	0x3b285038	0.002568258
138	0xbdad9c6d	-0.084771015
139	0xbd03dc60	-0.032192588
140	0xbd0969ac	-0.033548042
141	0x3d33e3cf	0.043918427
142	0xbd816a39	-0.063190885
143	0x3c08904e	0.008335186
144	0xbd3c6f81	-0.046004776
145	0xbbd8a38a	-0.0066112923
146	0x3d2da3a0	0.042392373
147	0xbcfba000	-0.030715942
148	0xbda3780e	-0.07981883
149	0xbd289a2a	-0.041162647
150	0x3db0d455	0.08634249
151	0xbc8b0405	-0.01696969
152	0x3c1a6e5d	0.009425727
153	0xbd249842	-0.040184267
154	0xbb30d45a	-0.002698204
155	0xbda45f72	-0.08026017
156	0x3cb2b2dd	0.021813804
157	0xbd40cb1a	-0.047068693
158	0xbb85ce4f	-0.004083432
159	0xbd94db2d	-0.07268367
160	0xbd2561a4	-0.04037632
161	0xbcac466c	-0.021029674
162	0x3d860e5c	0.065457076
163	0x3b028767	0.0019917132
164	0xbd82d6ce	-0.06388627
165	0xbc20ca10	-0.0098138
166	0xbd4d478e	-0.050117068
167	0x3c7be3f1	0.01537417
168	0xbd03b700	-0.032156944
169	0xbd69f111	-0.057114664
170	0xbd64c22f	-0.05584925
171	0xbd299e0f	-0.041410502
172	0xbd6dd4ed	-0.05806439
173	0x3d30f732	0.043204494
174	0x3c690f79	0.01422488
175	0xbd89e7c8	-0.06733662
176	0xbd0b6844	-0.034034982
177	0xbd31b785	-0.04338791
178	0xbd85a16d	-0.0652493
179	0xbd0dd6da	-0.034628727
180	0xbc9b952b	-0.018992027
181	0xbbde8dac	-0.006791791
182	0xbd0695a3	-0.03285755
183	0x3ac39e3b	0.0014924476
184	0xbc83e1dc	-0.01609891
185	0x3ba4eaaa	0.005032857
186	0xbd36ba84	-0.04461147
187	0xbce254ca	-0.027628321
188	0xbca48f18	-0.020087764
189	0xbce14811	-0.027500184
190	0x3d5cc8cf	0.053902443
191	0xbcc8f888	-0.024532571
192	0x3d7d5913	0.061852526
193	0xbd83b043	-0.06430104
194	0x3d69f286	0.057116054
195	0xbaa761a5	-0.0012770189
196	0x3ca1c437	0.019746883
197	0x3d7fe6f8	0.06247613
198	0x3bc451cc	0.0059911963
199	0x3ce3c273	0.027802682
200	0x3a7dde58	0.0009684316
201	0xbdabc8c0	-0.083878994
202	0xbd935fcd	-0.07196007
203	0xbd65fdd7	-0.056150284
204	0x3d73bc00	0.059505463
205	0xbcc50e25	-0.024054596
206	0xbda75a75	-0.0817155
207	0x3cb4caec	0.022069417
208	0x389dc932	7.523819e-05
209	0x3d2d7d59	0.04235587
210	0x3d8d699d	0.0690491
211	0xbd1d312e	-0.03837698
212	0x3d45a64d	0.0482543
213	0x3d86afc7	0.065764956
214	0x3c7bd197	0.015369794
215	0x3db44e4f	0.08803999
216	0x3d87c9cf	0.06630289
217	0xba12ef44	-0.00056051114
218	0x3b498781	0.0030750933
219	0xbd934f6b	-0.07192882
220	0x3d8585e3	0.065196775
221	0xbd51639a	-0.051120378
222	0xbb900f30	-0.0043963417
223	0x3d8b2a0e	0.06795131
224	0xbc97205e	-0.018448051
225	0x3b2b84c7	0.002617167
226	0x3d2e46c9	0.042547975
227	0xbd74aece	-0.05973702
228	0x3cd23aa5	0.02566273
229	0x3d0cb64d	0.034353543
230	0x3d0769ce	0.033059888
231	0xbd4176eb	-0.04723255
232	0xbdb20be6	-0.08693676
233	0xbcc804b7	-0.02441631
234	0x3d70bbee	0.058772974
235	0xbd4d7aee	-0.050166063
236	0xbdaddc8d	-0.08489332
237	0xbca01f71	-0.019546242
238	0x3cf6df87	0.030135883
239	0xbd72ea27	-0.059305336
240	0xbd62626b	-0.05526964
241	0x3d4b5a49	0.04964665
242	0x3ce8d8d4	0.028423704
243	0xbcde25f1	-0.027117701
244	0xbc783ab7	-0.015150717
245	0xbd848086	-0.064698264
246	0xbd0d3963	-0.034478556
247	0x3d9ad678	0.07560438
248	0x3d768aa1	0.0601908
249	0xbd49d708	-0.049277335
250	0xbcde4f6e	-0.027137484
251	0xbbb9da75	-0.005671794
252	0xbd576e10	-0.0525952
253	0xbd617d4b	-0.05505113
254	0xbcbca859	-0.023029493
255	0x3c78e28a	0.01519073

net.odeblock.net.odefunc.net.4.bias f4 [14]
0	0xbd72549e	-0.05916273
1	0xbd20e797	-0.03928336
2	0xbbe6f99c	-0.0070487987
3	0xbd706dd1	-0.05869848
4	0xbd3ff343	-0.04686285
5	0x3d95bce4	0.07311419
6	0xbd804193	-0.06262507
7	0xbb9470cd	-0.0045300485
8	0xbd80d745	-0.062910594
9	0xbd023cf5	-0.031796414
10	0xbc3fa3b1	-0.011696742
11	0x3d7ccb3f	0.061717268
12	0x3dca2e03	0.09872057
13	0xbd1f4c4b	-0.038891118

net.linear.weight f4 [9, 14]
0	0xbcbda24f	-0.023148684
1	0xbb728122	-0.0037003239
2	0xbcac13c2	-0.021005515
3	0x3b57fbeb	0.0032956551
4	0xba564194	-0.0008173224
5	0x3b1409c4	0.0022588829
6	0x3cd630a5	0.026146242
7	0xbb3f642e	-0.0029204
8	0x3b553193	0.003253077
9	0xbe12c5bc	-0.14333242
10	0xbd2b6388	-0.041842967
11	0xbb9594f7	-0.004564877
12	0x3e40fde1	0.18846847
13	0xbcf96864	-0.030445285
14	0xba078841	-0.0005170145
15	0x3c8fb0ba	0.017540324
16	0x3ab9b129	0.0014167178
17	0x3c67b21b	0.014141585
18	0x3ad04baf	0.0015891696
19	0xba919915	-0.0011108244
20	0xbb77130d	-0.0037700564
21	0xbcc97a74	-0.024594523
22	0xbbc5d105	-0.00603688
23	0x3d8fbe23	0.070186876
24	0x3dca43a0	0.0987618
25	0x3cc5b418	0.024133727
26	0x3e28b7d3	0.16476373
27	0xbca61694	-0.020274438
28	0x3c8cfec2	0.017211322
29	0x3b020f8c	0.0019845692
30	0x3c80413f	0.015656112
31	0xb9bc46ca	-0.00035910896
32	0xbb0bc8b9	-0.0021329357
33	0xbb2143f5	-0.0024607156
34	0xbcabd059	-0.020973371
35	0xba9615bc	-0.0011450569
36	0xbae9db5e	-0.0017841866
37	0x3e3a0378	0.18165386
38	0x3e0e5f2e	0.13903496
39	0x3dabe8ea	0.08394034
40	0x3d35d10c	0.044388816
41	0xbe707c48	-0.2348491
42	0xba35642a	-0.00069195277
43	0xbc1853a6	-0.009297287
44	0xbb5eb5cf	-0.0033982878
45	0xbbd5fdd7	-0.006530504
46	0x3b6eff9b	0.003646827
47	0xbb2234ce	-0.0024750712
48	0xb8bfbab8	-9.142369e-05
49	0x3bf5c290	0.0075000003
50	0xbb0530b8	-0.0020323228
51	0x3d033a5a	0.03203807
52	0x3db75c6f	0.08953177
53	0x3e1e41b7	0.15454756
54	0x3d8d161b	0.06888982
55	0xbdbc5332	-0.09195556
56	0x3c05e1be	0.008171497
57	0x3c67ba03	0.01414347
58	0x3b82db8b	0.0039934567
59	0x3c3342f6	0.010941258
60	0xba8d84a3	-0.0010796975
61	0x3ad1b26e	0.0015998611
62	0xbb928475	-0.0044713565
63	0xbc6efee2	-0.014587136
64	0xbb123f97	-0.0022315735
65	0xbd66da07	-0.05636027
66	0x3df249f6	0.11830513
67	0xbd2e52b0	-0.042559326
68	0xbe0b673b	-0.13613598
69	0xbe57f778	-0.21090496
70	0x3a382bb7	0.0007025557
71	0xbad05e37	-0.0015897219
72	0x3b265252	0.0025378657
73	0xba9749c3	-0.0011542368
74	0xba95779b	-0.0011403443
75	0xbb319d36	-0.0027101762
76	0x38e07dab	0.0001070456
77	0x3add2464	0.0016871807
78	0xbaafe197	-0.0013418671
79	0x3e2d09a8	0.16898215
80	0xbe0fe254	-0.14051181
81	0x3e1a4931	0.15066983
82	0xbe5df835	-0.21676715
83	0xbd02f1b0	-0.031968772
84	0x3acb1c65	0.0015496133
85	0x3b5405ab	0.0032352011
86	0x3bba033c	0.005676655
87	0x3b06a16a	0.0020542988
88	0xbb5eb4d0	-0.0033982284
89	0x3af2c4c3	0.0018521774
90	0xbba3f98b	-0.005004113
91	0xbbf55833	-0.007487321
92	0x3c007a63	0.007841679
93	0x3d435c4e	0.04769545
94	0x3d879c1d	0.06621573
95	0xbe09a2ca	-0.13441005
96	0x3e741c7e	0.23838994
97	0x3e48b0f5	0.19598754
98	0xbb7753eb	-0.0037739228
99	0xbc176a28	-0.009241618
100	0x3b403612	0.0029329103
101	0xbbe87917	-0.007094513
102	0xbaf43d8c	-0.0018634065
103	0x3b3e0fae	0.0029001045
104	0x397d82c8	0.0002417668
105	0x3b95cf41	0.0045718257
106	0x3bc6f252	0.0060713673
107	0xbbbd7028	-0.0057811923
108	0xbd9aa8c2	-0.07551719
109	0xbdafa775	-0.08576862
110	0x3cce8665	0.025210569
111	0xbd1940d1	-0.03741533
112	0x3b170b54	0.0023047524
113	0xbac6370f	-0.001512261
114	0xbb18b9a0	-0.0023304
115	0xbae969b3	-0.001780799
116	0x3a77af68	0.000944844
117	0xbba9b63d	-0.005179195
118	0x3aa81aaa	0.0012825329
119	0x3b33875c	0.0027393913
120	0xbbb68809	-0.005570416
121	0x3df92900	0.12166023
122	0xbe30795a	-0.17233792
123	0xbdb8e5d1	-0.09028209
124	0xbc371cdd	-0.011176315
125	0xbe57a886	-0.2106038

net.linear.bias f4 [9]
0	0x3af43bb7	0.0018633519
1	0x3a27406a	0.0006380143
2	0xb9b981f6	-0.00035382778
3	0x394b32c2	0.00019378497
4	0xb95f1fa9	-0.00021278732
5	0xba42509e	-0.00074125256
6	0x39db9960	0.00041885208
7	0x3a544a67	0.0008098245
8	0x393aadf8	0.0001780315
